MountainCar/models/MountainCar-50-epochs.model (torch, 173630 bytes, 20 tensors)

conv1.weight f4 [16, 3, 5, 5]
00000000: b72a df3d 614e c63d 2280 bfbd 1d73 bc3d
00000010: 4647 47bd dcec bf3d 14a6 bc3c d766 e8bd
00000020: 0dd6 8c3c 3d13 4dbd dbc7 a23d 638c b2bd
00000030: 8926 c93d e1c1 80bc 01f5 af3d 9440 15bc
00000040: cd0f 76bd 2886 983d 5089 85bc 38a2 923c
00000050: f4cf 373c a54f a0bd 3cec a1bd d69b 2bbd
00000060: eaa5 b93c 24c3 a33d 1438 d6bb db50 033d
00000070: fb9f 8f3d 40fb 4c3d 1407 943b d79e cdbd
00000080: 78ab 12bd 535b fd3c 31e0 933d 68f5 95bc
00000090: 2c4e b9bd ca09 813d 7c5f 73bc 140e 5e3d
000000a0: f758 08bd f786 123c 445a 2a3b cdd8 093c
000000b0: b055 89bc 748c d7bc 4d14 a7bd a1a8 963d
000000c0: 2956 a83d c107 bcbd e3fc c23d bf27 303d
000000d0: 79ed cf3c 255a e9bc 671c 49bc 38b8 4c3d
000000e0: 0c92 633d a48e 773d fc6e b83d faeb 523d
000000f0: 80f7 85bd 870a a3bd 12a3 2a3d 25b9 4cbc
00000100: 314a 38bd bf88 bdbd cab2 2a3d 5f4b 34bd
00000110: 723e a5bd 8ddd 59bd 5ed2 81bd da5a e33d
00000120: 0fae 01bd f26d 693c fc46 983d af73 dabd
00000130: 4b48 cebc fa95 883d 67cc e83d ebf3 ae3c
00000140: cb76 d5bd 70bc 8f3d 2592 063c 6c6b aa3d
00000150: fde2 b33c 24c4 f4bc 03cd 8d3b 18f0 793d
00000160: 8de9 d7bc 8e57 613d afec a5bd ceb4 a7bc
00000170: 875f cdbd 21e7 903c 5169 453b 6d10 4dbd
00000180: 94d6 373d ab6b 0ebc 5196 503d 37e1 88bd
00000190: 04bb d5bd 4bde d23d 48a0 5d3d 7145 9bbc
000001a0: abb6 d3bc 139b d4bd 74db da3d 33ea dd3d
000001b0: a4ca 553d 2e7e 953d 2488 473d b793 153d
000001c0: 6031 393d 20c8 06bd d939 b4bc 57ad 91bd
000001d0: 6663 933c 040f e4bd 5c28 9ebc ca8c bdbc
000001e0: 6e77 d23d d946 36bd 68d7 353d 83bc c73d
000001f0: 1187 d3bc 8f0e 17bd 0ef7 e63d 2246 11bd
00000200: 8664 31bb d57d bc3d a3a5 3a3d ad53 24bd
00000210: 83c1 a53d 301c a73d eeaa 28bc 2894 63bd
00000220: 4876 8f3d 2e29 42bc 7cb7 33bc 9db8 8e3d
00000230: 894f 283c ff8d 7abb 5dd2 13bc 781e 80bd
00000240: 750b e73c c9a4 1cbc 9852 9ebc 46dd cd3d
00000250: 4f4e a03d c3cb 87bd 6d96 a0bd e4a5 86bb
00000260: 81f8 433c b265 ba3d 7f87 a53d a0cc 75bd
00000270: e313 61bd 6816 eebc af88 26bd 9449 a1bd
00000280: 24f4 84bd 6ded 1e3d 8555 ccbd 356f c7bd
00000290: 4b71 ecbd 947f a5bb a35e 303d 896d 123d
000002a0: 8381 b73d 2c9d eabb 1fbf e1bd 4333 5e3c
000002b0: 0ec7 253c d32b b03d 86c6 a63d 66b9 57bc
000002c0: 1080 32bd dc66 923d 3a6a 81bd b083 d4bd
000002d0: 3d22 0bbd 2a03 a3bc c4e5 c43d 9a7a bd3d
000002e0: 0cd8 333d ce34 e83d 723e e93d b144 a4bd
000002f0: b1a8 b93d 2487 39bc 6a8f ac3d 47b4 e63b
00000300: 73aa 563c 29a2 52bd 2c1a 88bd 65d2 ec39
00000310: 60d8 b63d 5bdd 4d3d 793d e03c 97d1 2f3c
00000320: 546c ec3d 7cb0 e9bc 6370 cfbd 01c6 d83d
00000330: e3d8 ad3d 5635 88bd 63aa 8b3d ed45 aebd
00000340: ef82 7d3d e490 5f3d 32a7 b8bd b6c6 813d
00000350: 9407 563d fe36 8cbd ba6d 383d 3d6e e73d
00000360: 96fb 4b3d 6062 21bc 3d57 33bd 61fd 9cbc
00000370: 1f83 da3b d494 d6bd e0c2 633d 3faf bb3d
00000380: ec28 dfbd e62f 93bc 3df7 df3c cb4b b63d
00000390: a6fc 9a3d cdfc d93d 74f8 64bd fd8b 0dbd
000003a0: 0899 883d fee1 a43d 420a ce3a 54dd 8ebd
000003b0: c5e8 b0bd d4de 423d 7f43 e43c e391 e6bd
000003c0: ac73 473d 4ed4 66bd 66fa 83bd ca52 67bd
000003d0: c208 ce3d 8f79 523d 9be0 2ebc 897e 043d
000003e0: 6472 1a3d c101 63bd 84a1 9cbd df31 3d3d
000003f0: fe20 af3d 49bf 713d 6219 90bd 196c 8fbc
0.10896819 0.09682918 -0.09350611 0.092016436 -0.048651956 0.09371349 0.023028411 -0.1134774
0.017191911 -0.050067175 0.07948276 -0.08718183 0.09821803 -0.015717449 0.08591653 -0.009109635
-0.060073663 0.07447463 -0.016300827 0.017899618 0.0112190135 -0.07827691 -0.07906386 -0.041896664
0.022662122 0.079962045 -0.0065374468 0.03205953 0.07012936 0.0500443 0.0045174453 -0.10040062
-0.035808057 0.030927336 0.072204955 -0.018305495 -0.09048113 0.06300695 -0.014854308 0.054212645
-0.03328797 0.008943311 0.0025993744 0.008413506 -0.016764492 -0.02631209 -0.08158169 0.07356382
0.08219559 -0.091811664 0.095208906 0.043006655 0.02538179 -0.028485367 -0.012274838 0.049980372
0.055559203 0.060438767 0.090055436 0.051494576 -0.065413475 -0.07960992 0.041659422 -0.012495314
-0.04499263 -0.09254598 0.041674413 -0.044017192 -0.08068551 -0.053189803 -0.063389525 0.11101313
-0.031660136 0.014247404 0.07435414 -0.10666596 -0.025180956 0.06669231 0.11367112 0.021356544
-0.104230486 0.070183635 0.0082135545 0.0832127 0.021958822 -0.029878683 0.004327418 0.061019987
-0.026356483 0.05501514 -0.081017844 -0.020471957 -0.10027986 0.017688336 0.0030122588 -0.050064493
0.044882372 -0.008692662 0.050924603 -0.06683581 -0.10436061 0.10296305 0.054107934 -0.01895401
-0.025843939 -0.103811406 0.106863886 0.108356856 0.052195206 0.072994575 0.04871382 0.036517825
0.045213103 -0.032905698 -0.02200024 -0.0711314 0.017991733 -0.111356765 -0.019306354 -0.023138423
0.10276686 -0.04450116 0.04439488 0.09752753 -0.02582124 -0.03687912 0.11277591 -0.035467274
-0.0027067973 0.09203688 0.04556812 -0.040118862 0.0809355 0.08159673 -0.010294659 -0.055561215
0.07004982 -0.011850638 -0.010969039 0.06968806 0.010272869 -0.003823161 -0.0090223225 -0.062558115
0.028203705 -0.009560772 -0.019326493 0.1005197 0.07827436 -0.06630661 -0.078411914 -0.004109131
0.011961103 0.09101428 0.080824845 -0.0600096 -0.054950606 -0.029063419 -0.040657695 -0.07875362
-0.06491879 0.038800646 -0.09977249 -0.09738008 -0.115450464 -0.005050609 0.043059003 0.035748992
0.08960249 -0.0071598496 -0.110227816 0.013562026 0.010118259 0.08602109 0.08143334 -0.013166761
-0.04357916 0.07148525 -0.06319089 -0.1037668 -0.0339682 -0.01989897 0.09614137 0.092519
0.04390721 0.11338197 0.113888636 -0.08020914 0.090653785 -0.011323724 0.084257916 0.0070405337
0.013102162 -0.05142418 -0.06645617 0.00045170184 0.08927989 0.05025993 0.027373062 0.010731122
0.115440995 -0.028526537 -0.10128858 0.10584641 0.084886335 -0.06650798 0.06819608 -0.08509431
0.061892446 0.054581538 -0.09016265 0.06336729 0.05225332 -0.068464264 0.04502652 0.11300323
0.049800478 -0.009850115 -0.04378437 -0.01916379 0.006668463 -0.104776055 0.05560577 0.09164285
-0.10896477 -0.017967176 0.027339572 0.08901175 0.0756772 0.10643921 -0.055901006 -0.03455733
0.066698134 0.08050917 0.001571961 -0.06975809 -0.08638147 0.047575787 0.027864216 -0.112582944
0.048694298 -0.056354813 -0.06444244 -0.05647544 0.10060264 0.05138546 -0.010673667 0.032347236
0.037706748 -0.055421595 -0.07647994 0.04619014 0.08551215 0.059020314 -0.070360914 -0.0175076

conv1.bias f4 [16]
00000000: 0038 70bc 7f21 c13d e6d7 fabc ba78 943c
00000010: 81cc ea3d 4a66 263c fb81 7dbc 0595 4fbd
00000020: 85a7 903d 8396 71bc 875d 883d f8a4 c13c
00000030: 5211 b33d e028 b23d 3c9b 6f3d 55c9 9c3c
-0.014661789 0.09430217 -0.030620527 0.018123973 0.11464787 0.010156224 -0.015472884 -0.050679225
0.07063202 -0.014745357 0.06658464 0.023638234 0.08743538 0.086992025 0.058497652 0.019138971

bn1.weight f4 [16]
00000000: 0000 803f 0000 803f 0000 803f 0000 803f
00000010: 0000 803f 0000 803f 0000 803f 0000 803f
00000020: 0000 803f 0000 803f 0000 803f 0000 803f
00000030: 0000 803f 0000 803f 0000 803f 0000 803f
1.0 1.0 1.0 1.0 1.0 1.0 1.0 1.0
1.0 1.0 1.0 1.0 1.0 1.0 1.0 1.0

bn1.bias f4 [16]
00000000: 0000 0000 0000 0000 0000 0000 0000 0000
00000010: 0000 0000 0000 0000 0000 0000 0000 0000
00000020: 0000 0000 0000 0000 0000 0000 0000 0000
00000030: 0000 0000 0000 0000 0000 0000 0000 0000
0.0 0.0 0.0 0.0 0.0 0.0 0.0 0.0
0.0 0.0 0.0 0.0 0.0 0.0 0.0 0.0

bn1.running_mean f4 [16]
00000000: 742c 70bc d324 c13d 34d0 fabc 9374 943c
00000010: f5cc ea3d df47 263c 7a5b 7dbc fda2 4fbd
00000020: e0a6 903d 8298 71bc 665a 883d e4a8 c13c
00000030: a811 b33d 632b b23d 499f 6f3d fad1 9c3c
-0.014659036 0.09430852 -0.030616857 0.018121993 0.11464874 0.010148971 -0.015463704 -0.050692547
0.07063079 -0.014745833 0.06657867 0.023640104 0.08743602 0.086996816 0.058501516 0.019143093

bn1.running_var f4 [16]
00000000: a700 8037 9b46 0038 b2f5 2537 28d6 1937
00000010: 4ef5 1337 39aa 7837 a841 2538 9757 b038
00000020: bc77 8036 3dc8 1137 8408 b037 11ba de36
00000030: 2d5a a936 d1ff 1e37 c925 7537 d8c0 ba37
1.5259093e-05 3.0583335e-05 9.891972e-06 9.169373e-06 8.818997e-06 1.4821585e-05 3.9400213e-05 8.408649e-05
3.828636e-06 8.689295e-06 2.09848e-05 6.6377766e-06 5.0470903e-06 9.477096e-06 1.46119355e-05 2.2262728e-05

conv2.weight f4 [32, 16, 5, 5]
00000000: 670f f5bb 4d2a 4b3d 9046 dfbc e728 febc
00000010: a089 05bd ef5c 143d 0aa9 d93c 4200 2e3d
00000020: c02f e73b bd30 b5bc 3a33 e5bc bb23 2dbd
00000030: 9f36 093d 83d5 26bd 9d9e 243d 157f 31bd
00000040: 47d1 dabc ba2f 22bd 13f8 fdbc 1a30 4ebc
00000050: edd5 fbbc 672f 713b aa35 9f3c 3716 843c
00000060: 20a6 adbc a039 553c 3308 48bc da70 0e3d
00000070: 802c 523b bd1d 463d 3259 45bd 077e 69bc
00000080: 2aef 343d 6080 f13c 00f0 63ba 4de5 323d
00000090: 1bba 293d 27a1 a2bc e79c 51bb 88d3 1fbd
000000a0: f82e 313d 0599 33bd 9d2c cbbc 0287 2fbd
000000b0: ab4e 353d b344 41bd 801d f9bc abe5 303d
000000c0: 2b93 083d 720b 103d ca4e ce3c eaee a83c
000000d0: 3a74 6c3c 3a7e f1bc 607d e33c ed53 78bc
000000e0: 5d63 d6bc a226 2dbd 7a61 71bc a763 a23c
000000f0: 0005 c3bb c334 dcbc faa1 a63c c011 6ebc
00000100: a0ed 46bc 07cd 963c 0834 313d 47eb 3c3d
00000110: 90a6 113d cdd8 a83b 2f41 273d 635a 9b3c
00000120: 3a72 363d 5af7 913c c0aa 2ebc 2dca 61bc
00000130: 5751 f53c 3317 d6bb 107a 40bd a358 473d
00000140: 6b54 34bd 5b94 253d b367 a13c 175c 463d
00000150: adc8 c9bc 67a3 3cbd 5070 f93c cd3e c8ba
00000160: 0a5f a33c 3752 a03c 3339 9e3c 200e 833c
00000170: daad 9f3b 1788 803c 07f8 32bc f01d 0d3d
00000180: 7765 073d 7355 e33c 4d53 563b 3584 063d
00000190: 4bc1 153d 0ad8 29bd fa3f cfbc 40af 7f3c
000001a0: 207c 2d3c 13b0 3a3d b0eb 433d f58c 03bd
000001b0: 67e2 73bb 7a29 f2bc c73c 103c 3adc 43bc
000001c0: 7f5d 1cbd 7006 c3bc 0d61 0abd 67cf 1cbd
000001d0: d7ed a83c 209b e7bc 605f abbc ba22 91bc
000001e0: 6a76 adbc 9bbe 36bd f0b6 b1bc 1712 dcbc
000001f0: 90be 2cbd 9303 c53c 939c 9a3c 00b7 87bb
00000200: 6f32 37bd ca00 023d 22e2 1abd 4d9f dbbb
00000210: cddc a4ba 1bf4 0b3d 0ab7 ed3c a0a2 983c
00000220: 4d3f 423c b0dd d7bc da78 363c e355 aa3c
00000230: 43b5 3abd d81c 403d 3d8c 87bc e793 ffbb
00000240: 402e efbb 78f3 39bd efda 13bd 857e 2d3d
00000250: b394 fa3b 337f 383c 00a7 4ebb dd76 903c
00000260: 1a68 5b3b 1ae5 fe3c d003 343d ba26 5a3c
00000270: b277 1a3d 5a6e 183c e063 67bc babb 0e3d
00000280: 57cf 9ebc b34f a3bb c030 4d3c 6005 573c
00000290: 22ad 083d f3df c53b 9aff 0b3b c715 083d
000002a0: 9701 d7bc a5be 0c3d c712 cdbc 2f8e 4a3d
000002b0: 5a05 a5bb 9033 8e3c 837b 26bd 00c0 bbb9
000002c0: fa93 8bbc 9315 0fbc e006 233d afa4 24bd
000002d0: 15a1 44bd 4a06 e93c f396 33bc 4844 173d
000002e0: 2d0b 01bd ff67 163d 332c 953a dadd db3c
000002f0: daee 873b 7329 00bc 0d35 e73c 4d89 c13b
00000300: 5583 113d 73ac efbb e087 b03c b3a5 b53b
00000310: 9aae ec3c af14 263d 275f b8bc 33ed 1dbb
00000320: 9361 74bc 47c3 eebc 5aa3 8ebc 7a6a 36bc
00000330: 6a29 01bd 436c cb3c 52fa 263d 507c d23c
00000340: b396 17bc ba41 4b3c 353b 32bd 93b6 2bbc
00000350: ca95 9a3c f712 c93c 4728 b0bc 8036 2c3d
00000360: 0049 e73a 806d 403b a7f4 9cbc df5e 40bd
00000370: cd36 093c 80dc 9a3c 20dc 853c 9af7 f0ba
00000380: 8dc9 2f3d 6054 183c 9a84 bebc 7af3 8cbc
00000390: f20f 123d 9516 183d ed47 6b3c 3abb e4bc
000003a0: 8df5 7b3c cd04 db3a 335a 5f3b 4332 9fbc
000003b0: 7062 8bbc 5017 303d 6093 1dbd 735f 9fbb
000003c0: 0f24 0abd 9adf 97bb 9ab7 7aba 8571 093d
000003d0: 9a17 d3bc 0751 21bc 0048 753b b34e 21bd
000003e0: b09b 22bd 3a14 c0bc fd65 19bd f7ee 11bd
000003f0: 6720 43bb e7f2 53bb 5f57 473d 2d6d 3abd
-0.0074786427 0.049600888 -0.027255327 -0.031025363 -0.032601953 0.03622144 0.026569862 0.042480715
0.007055253 -0.022117967 -0.027978528 -0.042270403 0.033499356 -0.040730964 0.040190328 -0.043334085
-0.02671112 -0.039596297 -0.03100208 -0.0125847105 -0.030741656 0.0036801936 0.019434769 0.016123874
-0.021197379 0.013014227 -0.012208986 0.034775592 0.003206998 0.048368204 -0.048180766 -0.014251239
0.044173397 0.02948016 -0.00086951256 0.04367571 0.04143725 -0.019852234 -0.003198439 -0.03902009
0.043257684 -0.043847103 -0.024801547 -0.042853363 0.044264477 -0.047184657 -0.030409575 0.04318778
0.033343475 0.035167165 0.025184054 0.020621736 0.014432007 -0.029479135 0.027769744 -0.015156728
-0.026170427 -0.04227317 -0.014732713 0.019822909 -0.005951524 -0.026880627 0.020340908 -0.014530599
-0.012141615 0.018408312 0.04326251 0.046122815 0.035559237 0.005152798 0.04083365 0.018963998
0.04454253 0.017818142 -0.010660827 -0.013781113 0.029946012 -0.0065335273 -0.046991408 0.048668515
-0.04402582 0.040424686 0.019702768 0.048427667 -0.024631822 -0.04605427 0.030449063 -0.0015277505
0.01994278 0.019570453 0.019314384 0.015997946 0.0048730196 0.015689893 -0.010923392 0.03445238
0.03305575 0.027750706 0.003270346 0.032840926 0.03656129 -0.041465797 -0.025299061 0.015605748
0.010588676 0.045578074 0.04783219 -0.03211685 -0.0037213804 -0.029560793 0.008803553 -0.011954362
-0.038175102 -0.02380678 -0.03378396 -0.03828373 0.020621223 -0.028272212 -0.020919502 -0.017716754
-0.021174628 -0.04461537 -0.021693677 -0.026864095 -0.042173922 0.024049556 0.018873489 -0.0041416883
-0.04472583 0.031739034 -0.037813313 -0.0067023397 -0.0012578011 0.034168344 0.029017944 0.018632233
0.011855912 -0.026350826 0.011137212 0.020792907 -0.04558302 0.046902508 -0.016546363 -0.0077996138
-0.0072992146 -0.045398206 -0.036097463 0.042356987 0.007647121 0.011260795 -0.0031532645 0.017634803
0.0033478797 0.031115104 0.04394895 0.013314897 0.037711807 0.009303654 -0.014122933 0.034847
-0.019385977 -0.004983866 0.01252383 0.01312384 0.033368237 0.0060386597 0.0021362067 0.033223893
-0.026245875 0.0343615 -0.025033368 0.049452003 -0.0050360383 0.017358571 -0.040645134 -0.0003581047
-0.017038334 -0.008733171 0.03980148 -0.040196117 -0.048005182 0.028445382 -0.010961282 0.036930352
-0.0315048 0.036720272 0.001138097 0.026839186 0.0041483464 -0.007822382 0.028223539 0.00590626
0.03552564 -0.0073142587 0.021549165 0.0055434345 0.02889185 0.04054707 -0.02250631 -0.002409768
-0.014915842 -0.02914585 -0.017411876 -0.011133784 -0.031533636 0.024831897 0.040766068 0.025694042
-0.009252238 0.012405807 -0.043513495 -0.010480541 0.018870253 0.024545176 -0.02150358 0.042044163
0.0017645657 0.0029362142 -0.019159628 -0.046965476 0.008374882 0.01890397 0.016340315 -0.0018384338
0.042916823 0.00929746 -0.023256589 -0.017205942 0.035659738 0.03713091 0.01436041 -0.027921308
0.015378368 0.0016709805 0.0034080863 -0.019433146 -0.017014712 0.042990983 -0.038470626 -0.0048636734
-0.033725794 -0.0046348097 -0.0009564102 0.033555526 -0.02576809 -0.009845979 0.0037426949 -0.039381694
-0.039699256 -0.023447145 -0.03745078 -0.035628285 -0.0029773952 -0.0032340826 0.048667308 -0.045514274

conv2.bias f4 [32]
00000000: 006e 15bc 60e5 dd3c 48c0 2cbd 43ab c03c
00000010: 0239 263d 10a1 e43c 4d08 36bc 1ae3 1abd
00000020: 6ddc 643c 80fa 013c 80f4 5fbc 1ac3 d23c
00000030: dbdb 19bd c3ad e7bc 67db f9ba 9a0e 26bc
00000040: 9d04 17bd af78 26bd 47bc b23c 8d68 1cbc
00000050: 0dad 91bc f067 3dbd 985f 3a3d 6f39 433d
00000060: 75e4 313d 8793 503c 50b0 3fbd 7bb5 0cbd
00000070: f3de 31bc ea03 31bd 63a1 9a3c 9a05 673b
-0.009120464 0.027086914 -0.04217556 0.023519164 0.04058171 0.027908832 -0.0111103775 -0.037814237
0.013968569 0.007933259 -0.013669133 0.025727797 -0.037563186 -0.028281098 -0.0019062579 -0.010135317
-0.036869634 -0.040642437 0.021818293 -0.009546411 -0.017782712 -0.0462417 0.04550132 0.047662195
0.043430764 0.012730486 -0.046799004 -0.03435276 -0.010856378 -0.043216623 0.018875783 0.0035251142

bn2.weight f4 [32]
00000000: 0000 803f 0000 803f 0000 803f 0000 803f
00000010: 0000 803f 0000 803f 0000 803f 0000 803f
00000020: 0000 803f 0000 803f 0000 803f 0000 803f
00000030: 0000 803f 0000 803f 0000 803f 0000 803f
00000040: 0000 803f 0000 803f 0000 803f 0000 803f
00000050: 0000 803f 0000 803f 0000 803f 0000 803f
00000060: 0000 803f 0000 803f 0000 803f 0000 803f
00000070: 0000 803f 0000 803f 0000 803f 0000 803f
1.0 1.0 1.0 1.0 1.0 1.0 1.0 1.0
1.0 1.0 1.0 1.0 1.0 1.0 1.0 1.0
1.0 1.0 1.0 1.0 1.0 1.0 1.0 1.0
1.0 1.0 1.0 1.0 1.0 1.0 1.0 1.0

bn2.bias f4 [32]
00000000: 0000 0000 0000 0000 0000 0000 0000 0000
00000010: 0000 0000 0000 0000 0000 0000 0000 0000
00000020: 0000 0000 0000 0000 0000 0000 0000 0000
00000030: 0000 0000 0000 0000 0000 0000 0000 0000
00000040: 0000 0000 0000 0000 0000 0000 0000 0000
00000050: 0000 0000 0000 0000 0000 0000 0000 0000
00000060: 0000 0000 0000 0000 0000 0000 0000 0000
00000070: 0000 0000 0000 0000 0000 0000 0000 0000
0.0 0.0 0.0 0.0 0.0 0.0 0.0 0.0
0.0 0.0 0.0 0.0 0.0 0.0 0.0 0.0
0.0 0.0 0.0 0.0 0.0 0.0 0.0 0.0
0.0 0.0 0.0 0.0 0.0 0.0 0.0 0.0

bn2.running_mean f4 [32]
00000000: 9ac7 11bc 54f5 e03c 19d6 2cbd d2f8 bb3c
00000010: 8454 293d 91cd e63c 7e8c 38bc dd95 1dbd
00000020: 6284 593c ff7b ed3b cdc5 72bc 652c d13c
00000030: c42d 1cbd 133d e8bc 758c 01bb eeb7 25bc
00000040: 33b3 16bd 0754 25bd 74f8 aa3c 4cc3 14bc
00000050: 7d2b 8fbc 566f 3bbd c1ca 393d 9ef2 433d
00000060: ae9a 313d 86f3 4d3c 8baf 3bbd 1706 0ebd
00000070: 5c69 2ebc 9a9c 33bd f3ab 9b3c 1515 673b
-0.008897686 0.027460732 -0.042196367 0.022945795 0.041340366 0.028174194 -0.011263965 -0.038473
0.013276191 0.0072474475 -0.014817667 0.025533864 -0.038129583 -0.028349435 -0.0019767557 -0.010114653
-0.03679199 -0.040363338 0.020870425 -0.0090797655 -0.017476792 -0.045760475 0.045359377 0.0478388
0.043360405 0.012570268 -0.045821708 -0.034673776 -0.010645237 -0.04385052 0.01900289 0.0035260369

bn2.running_var f4 [32]
00000000: e6a5 3d3a 766e 4f3a 103e 553a 03a7 943a
00000010: 3507 943a 775c 803a aacc 693a 2c51 ba3a
00000020: 2d5e a53a 77fc 8d3a bf02 1f3b 8ba7 b63a
00000030: 6a7b a33a 493c 293a 655c c03a d138 643a
00000040: e986 a43a b16b 653a f4e8 353b 37e3 5c3a
00000050: 9640 0b3a 0e61 8c3a 90e3 673a 1de7 243a
00000060: a37b 9e3a fd58 413a 4ada be3a 4c21 7b3a
00000070: 3789 613a 78d4 843a 426a 2b3a 6665 643a
0.00072344986 0.00079128833 0.0008134553 0.0011341277 0.0011293652 0.0009793182 0.0008918742 0.0014214865
0.0012616568 0.0010832687 0.0024263111 0.001393543 0.0012472693 0.00064558216 0.0014675973 0.0008705976
0.0012552413 0.0008751704 0.002775726 0.00084261916 0.0005312053 0.0010710077 0.000884586 0.0006290542
0.001209129 0.0007375626 0.0014560905 0.0009579852 0.00086035155 0.0010134121 0.0006538966 0.00087126193

conv3.weight f4 [32, 32, 5, 5]
00000000: 4085 7fbc 8330 1fbc 168c fcbb 1b86 1d3c
00000010: 5a7d d03c 5a09 e33a fa11 51bb 2bdf 903c
00000020: e5e5 933c 3aee a83b 1e81 8cbc 932b 8d3c
00000030: 8373 bb3c e84e 89bc a68c 0c3d 37e6 8fbc
00000040: ee66 a93c 1495 0a3d 4c22 c1bc 7780 b6bc
00000050: e684 fa3c e1b4 803c a347 e53c 4480 fe3c
00000060: 4b29 00bd 1e84 29bc 0dfe e8bb 0f8c 83bc
00000070: 218f 003d c342 aabc 0ae1 f73c 418c 2e3c
00000080: 1363 0c3d 3589 203c 2b8d 953b 6c0e a6bc
00000090: cca8 ccbc 7536 cdbc 99fe 0cbd 25eb 05bd
000000a0: ad3a f5bc 2957 8a3a d08a b13b 91a1 593c
000000b0: 5adf 1ebc 4aa0 dabc 6f9f 8d3c 81fd fa3c
000000c0: fcef 8cbb a5d5 ef3c b092 b03b 73ac 943a
000000d0: 9456 f6bb aabd 0dbd eec0 003d 2431 c93c
000000e0: ffa1 82bc 2b56 103d 5b1d aa3c d689 f63c
000000f0: 0b04 3f3c aeff f9bc db98 0fbd 1b38 fc3c
00000100: 57c7 66bc 719f e8bb 8087 2abb 4354 a0bb
00000110: fbc7 203c e877 e3bb 1a84 9d3c ad75 933c
00000120: 335e 69bc d106 8d3c a729 733c acbe e13b
00000130: a5b2 c1bb 8084 a5bc 6b2b a1bc 3e60 1bbb
00000140: 053e 66bc 328a 00bd ebcd 8b3c 0fbd 3b3b
00000150: 9085 78bc 5eb3 19bc 20f8 f73c fd8a fbbc
00000160: e4c9 cc3a 2699 b23c 1867 b03b 7192 b0bc
00000170: 8196 d3bc 49eb f23c c933 fbbc 9585 03bd
00000180: 985b a4bc 39a8 35bc 9caf a3bb beff 0f3b
00000190: 1557 613c 10d8 8ebb b581 9b3c 18a9 993b
000001a0: df53 f03c 5f1e 8abc f1ab ef3a c578 5e3c
000001b0: df06 013d 7e01 193c 845d 773b 0e7d e9bc
000001c0: f17e 7039 c09d 9dbc bb11 e53c cd86 cebc
000001d0: ef77 2d3c c499 083d 58cb c83b 1304 033c
000001e0: ebde c03c dab4 b63a 9cf4 1dbc 5c8b fd3c
000001f0: 64e6 393c cd11 073d f787 923c f7a3 733c
00000200: 5479 3cbc 03db 753c 92f0 533c 25d6 84bb
00000210: 0392 f63b e30b afbc 7f11 cabc dcda 82bc
00000220: fddc 82bb b235 823c b3d4 cb3c de4a 40bc
00000230: 54ae f7bc 41ca e1bc 6598 e93c 6d5a dfbc
00000240: 9eea ad3c d7f2 8c3c a4c4 2bbc 9f11 a5bc
00000250: 86ee f9bb f308 1f3a f6f4 00bc 070e 153a
00000260: 4086 c73b abd1 20bb 9472 d93c 6238 01bd
00000270: 0935 eabc 3342 bc3c b57b 093d 59e1 cdbc
00000280: a912 4abb 265c 20bc 92ce b2bc 95dd 80bc
00000290: e624 a8bc 4a84 db3b d2cf eb3c a333 0c3d
000002a0: 87b5 f53c 1f76 d83c dce2 63ba a872 103d
000002b0: 6647 30bc dc80 d13c d946 bd3c f2bd 03bd
000002c0: 9ac5 953c 5d4f dbbc 4030 59bc 42b4 043c
000002d0: 5478 0f3d 2e89 103d 3e1b 44bc 52a0 aabb
000002e0: 2252 4bbc 96d9 f73c 93bb 7bbc 43d7 f8bc
000002f0: 4ca5 6dbc adda aabc dbd5 af3b 6b08 5f3c
00000300: 2326 5b3b ab5b 2f3a 45b1 23bc 752d a5bc
00000310: 8122 d1bc 4765 103d fa89 cb3c 86eb 87bc
00000320: 100e d8bc 645f 94bc e45c 9c3b 5a2e aa3c
00000330: 746b a4bc 830a 293c 22f7 f8bc 47bb ecbc
00000340: 2ee0 8ebc 6ed6 393a e16f bebc 14e6 d53c
00000350: 1945 3b3c aa59 963b 3275 a2b7 a6cb 9ebc
00000360: 8462 7d3c 9489 a93c ce55 a73c 31b8 a2bb
00000370: 01b0 3ebc f8fe 123c d179 21bb bf63 da3c
00000380: c143 7dba 02bd 04bb 625f b2bc ce1d 393c
00000390: 23a1 5f3b 29e0 823c 0439 e83c 6f05 dbbc
000003a0: fefb cfbc e3fe 17bc e786 f5bc 2b6f 80bc
000003b0: d84d a13c 4bfe 03bd 656e 443c e151 133c
000003c0: 8e9a e7bb bea3 953c fccc 9eb9 8283 523c
000003d0: 3cee ccb9 0bd8 493c de33 82bc 9b08 a5bc
000003e0: ef09 46bc f1ff 49bc 3aff 7bbc cc1e e1bb
000003f0: 4335 983c 804c 07bd 0ab9 cfbc 8650 0d3c
-0.015595734 -0.009716156 -0.007707129 0.009614493 0.025450397 0.0017321513 -0.0031901584 0.01768454
0.018053958 0.005155352 -0.017151412 0.017232692 0.022882229 -0.016761258 0.03431382 -0.01756583
0.020678964 0.03383358 -0.023575924 -0.022278054 0.030580949 0.01571125 0.02798826 0.031067021
-0.03128938 -0.010346441 -0.0071103633 -0.016057996 0.0313865 -0.020783788 0.030258674 0.010653556
0.034274172 0.009798338 0.0045639477 -0.020270549 -0.024982832 -0.025050381 -0.03442249 -0.032694954
-0.029935205 0.001055454 0.005418159 0.013283149 -0.009696806 -0.02668776 0.017287938 0.030638458
-0.0043010693 0.029276678 0.0053885803 0.0011342898 -0.007517645 -0.034604706 0.031433992 0.024559565
-0.015946386 0.035238426 0.02076595 0.030095022 0.011658679 -0.030517425 -0.035057884 0.030788472
-0.014085612 -0.007099085 -0.0026020706 -0.0048928573 0.009813304 -0.006941784 0.01922803 0.018000448
-0.01424365 0.017215164 0.014841474 0.006889185 -0.0059111887 -0.020204782 -0.019674024 -0.0023708488
-0.014052873 -0.031381793 0.017065963 0.0028646623 -0.0151685625 -0.009381143 0.030269682 -0.030705923
0.0015624133 0.021801542 0.0053833835 -0.021554204 -0.025828602 0.029653208 -0.030664342 -0.032109816
-0.020063207 -0.011087471 -0.0049952995 0.0021972503 0.013753672 -0.0043592528 0.018982748 0.004689347
0.029336868 -0.016860185 0.0018285495 0.013578598 0.031500693 0.009338735 0.0037744949 -0.028502014
0.00022935473 -0.01924026 0.027962556 -0.025210762 0.010587676 0.033349767 0.006127756 0.007996577
0.023543796 0.0013939396 -0.009640839 0.03095024 0.011346433 0.03297596 0.017887099 0.014870635
-0.011503536 0.01500583 0.012935774 -0.0040538483 0.00752473 -0.021367973 -0.024666546 -0.0159735
-0.003993629 0.015894745 0.024881696 -0.0117366 -0.030234493 -0.027562262 0.02851505 -0.027264798
0.021230038 0.017205639 -0.0104838945 -0.020150004 -0.007627311 0.0006066702 -0.007870903 0.0005685989
0.006089002 -0.0024539034 0.026543893 -0.03154791 -0.028589742 0.022980785 0.03356524 -0.025131868
-0.0030833876 -0.009787595 -0.021827016 -0.015730659 -0.020525407 0.0066991197 0.02878562 0.034228932
0.029993786 0.026423512 -0.00086931675 0.035265595 -0.01075921 0.02557414 0.023105072 -0.032163568
0.0182827 -0.026771242 -0.013256133 0.008099617 0.035026863 0.035287075 -0.011969386 -0.0052071
-0.012409719 0.03025512 -0.015364545 -0.030376082 -0.014504742 -0.020856226 0.0053660697 0.013612847
0.003343948 0.000668938 -0.009990995 -0.020163277 -0.025529148 0.035252836 0.024846066 -0.016591799
-0.026373893 -0.018111892 0.0047718156 0.020774055 -0.020070769 0.010317448 -0.03039128 -0.028897895
-0.017440882 0.00070891425 -0.023246707 0.026110686 0.011430048 0.0045883255 -1.9366478e-05 -0.019384217
0.0154653825 0.020695485 0.020426657 -0.004965805 -0.011638642 0.008971922 -0.0024639259 0.02665889
-0.000966128 -0.002025426 -0.021773998 0.01129861 0.0034123145 0.015976029 0.0283475 -0.02673599
-0.025388714 -0.009277078 -0.029971553 -0.015678009 0.01969044 -0.032224935 0.011989211 0.008991689
-0.007067985 0.018266555 -0.00030288834 0.012848737 -0.0003908741 0.012319575 -0.015893873 -0.020145705
-0.012087329 -0.012329088 -0.015380675 -0.0068701264 0.018580085 -0.03303194 -0.025356788 0.008625155

conv3.bias f4 [32]
00000000: d57e 9cbc d8b7 b0ba 46c7 f63c eb11 053d
00000010: cb01 cebc a43f c23b 2108 fb38 5dad 0bbd
00000020: 5acc 9c3c fb4e bd3c b8cf 3cbc 3f25 a23c
00000030: e47d edbc 622b ebbc 1eb7 b63c 0b21 143c
00000040: 3c59 a33b dc55 e33a 846a 78bc c0b6 a3bc
00000050: ec38 02bc 4526 debc aee5 bebc ae67 44bb
00000060: 140e 8ebb 6fc4 8dbc 6f48 fabb f116 723b
00000070: fca5 993c e736 083d 32d7 c93c 08e4 0abd
-0.019103447 -0.0013482524 0.030124318 0.03248779 -0.02514734 0.0059279967 0.00011970127 -0.03410088
0.019140411 0.02310895 -0.011524133 0.019793151 -0.028990693 -0.02870721 0.022304114 0.009041081
0.004985003 0.0017344314 -0.015162114 -0.019984603 -0.007948142 -0.027117858 -0.02330288 -0.0029969024
-0.0043351743 -0.01730558 -0.0076380293 0.0036939944 0.018755905 0.033255484 0.024638746 -0.033908874

bn3.weight f4 [32]
00000000: 0000 803f 0000 803f 0000 803f 0000 803f
00000010: 0000 803f 0000 803f 0000 803f 0000 803f
00000020: 0000 803f 0000 803f 0000 803f 0000 803f
00000030: 0000 803f 0000 803f 0000 803f 0000 803f
00000040: 0000 803f 0000 803f 0000 803f 0000 803f
00000050: 0000 803f 0000 803f 0000 803f 0000 803f
00000060: 0000 803f 0000 803f 0000 803f 0000 803f
00000070: 0000 803f 0000 803f 0000 803f 0000 803f
1.0 1.0 1.0 1.0 1.0 1.0 1.0 1.0
1.0 1.0 1.0 1.0 1.0 1.0 1.0 1.0
1.0 1.0 1.0 1.0 1.0 1.0 1.0 1.0
1.0 1.0 1.0 1.0 1.0 1.0 1.0 1.0

bn3.bias f4 [32]
00000000: 0000 0000 0000 0000 0000 0000 0000 0000
00000010: 0000 0000 0000 0000 0000 0000 0000 0000
00000020: 0000 0000 0000 0000 0000 0000 0000 0000
00000030: 0000 0000 0000 0000 0000 0000 0000 0000
00000040: 0000 0000 0000 0000 0000 0000 0000 0000
00000050: 0000 0000 0000 0000 0000 0000 0000 0000
00000060: 0000 0000 0000 0000 0000 0000 0000 0000
00000070: 0000 0000 0000 0000 0000 0000 0000 0000
0.0 0.0 0.0 0.0 0.0 0.0 0.0 0.0
0.0 0.0 0.0 0.0 0.0 0.0 0.0 0.0
0.0 0.0 0.0 0.0 0.0 0.0 0.0 0.0
0.0 0.0 0.0 0.0 0.0 0.0 0.0 0.0

bn3.running_mean f4 [32]
00000000: e80e 9ebc d877 37bb b783 f03c 0e1f 0a3d
00000010: 0624 d0bc f6f4 f13b 5471 91ba 3a31 0fbd
00000020: 7b1c 9a3c da6f b73c e863 42bc 3c78 993c
00000030: c291 e9bc 4005 eebc eb48 b43c 63d4 0c3c
00000040: ebc0 8c3b e8be 693a 2e91 62bc a532 9abc
00000050: ef09 07bc d409 debc 3474 b9bc 7cc6 3ebb
00000060: 6299 87bb 9c17 91bc 94b6 03bc 2cd3 633b
00000070: fa3a 943c c8d6 023d a964 c33c bd4d 0ebd
-0.019294217 -0.0027995016 0.029359682 0.033721022 -0.025407802 0.007383938 -0.0011096396 -0.034959055
0.018812409 0.022392202 -0.01186464 0.01873409 -0.028511886 -0.029055238 0.022007426 0.008595559
0.0042954586 0.0008916692 -0.013828559 -0.018822977 -0.008242114 -0.027104296 -0.022638418 -0.0029110005
-0.0041381577 -0.017711453 -0.0080391355 0.003476332 0.018094528 0.031943113 0.02385171 -0.034742106

bn3.running_var f4 [32]
00000000: 63ee 1c3a 601d 463a c3eb c639 1957 173a
00000010: 21d7 073a 1c10 2a3a ef39 303a 0952 dd39
00000020: 989f c139 3ebe 043a ca0d f739 7795 3b3a
00000030: 31ec 083a abaa 2e3a 100a 123a fc6a 243a
00000040: b9d8 723a 9114 563a 6e0f 703a b1f7 323a
00000050: 56d2 253a 061b 123a 63a2 3d3a 9eb4 f339
00000060: 67e5 1e3a c1bf e239 c2b5 dc39 dfa2 eb39
00000070: 0a8e 0e3a a6c1 623a 63ec 023a 4356 033a
0.000598645 0.0007557478 0.0003794116 0.00057731714 0.0005181898 0.0006487386 0.00067225 0.00042213526
0.00036930735 0.00050637487 0.00047121785 0.0007155756 0.00052231835 0.0006663005 0.00055709574 0.00062720454
0.00092638616 0.0008166517 0.00091575726 0.000682707 0.0006325593 0.0005573485 0.00072339753 0.00046483142
0.00060614053 0.00043248947 0.0004209709 0.0004494404 0.00054380356 0.00086500717 0.0004994331 0.00050101074

head.weight f4 [3, 512]
00000000: 177e 0bbd 9784 d5ba f22b f9bc e149 e63c
00000010: 3433 f3bc f1d8 173d fa30 55bb 73d1 863c
00000020: 7857 ee3c e855 0c3c bfc0 c3bc d3ab 92bc
00000030: e3b5 1fbb 9fb1 9b3b b018 0e3d be98 1a3d
00000040: 6c5b e83c 0992 fd3b eb39 97ba 8f53 2dbd
00000050: 85ee efbb f23f 683c edeb 94bb 3988 1dbd
00000060: 7c3d 343d 4529 d4bb 7470 0b3d 3824 eb3b
00000070: 7347 5d3c aaa3 06bd ce53 933c e6d2 aa3c
00000080: 083f 7fbb 2e72 18bd 76f7 19bd 414a 06bd
00000090: e6f0 c2bc 3dc5 b9bc d011 7cbc b65d b13c
000000a0: fafc 55bc f9c9 343c b971 db3c 306f a73c
000000b0: 6c0b 46bc b47e 7dbc 372b 32bd 8d9a 1b3d
000000c0: 322e 003c 2e81 333d 0e87 793c ecac bf3b
000000d0: 10d8 f93c 75dd bdbb 2c98 153c fd2a f0bc
000000e0: 928f b63c b8d0 acbc 8b3b 07bd 9454 e53c
000000f0: 0b8b 08bd 20af 81bc 9446 0cbd 643f 79bc
00000100: a68b cfbb 4811 14bd 63e5 003d 9131 933c
00000110: 3529 253c 920d acbc 90bd 433c 53f2 a339
00000120: d405 be3c dea7 a73c 5754 33bd 68b8 debb
00000130: 11df 2f3d 96f5 573c 8489 733b bc99 273d
00000140: 9992 90bc 7c57 103d 6762 1f3d 549b 15bd
00000150: 1343 483c 5dad 223d 7db5 0a3c 515d 10bd
00000160: 28c7 75bc 9025 adbc eeb2 c4bb 3dde 31bd
00000170: 8f6d 74bc fc03 3cbc 93d1 38bb 0143 30bd
00000180: d261 173d 3cc3 4d3c ee72 13bd 3cd2 933b
00000190: 0753 ddbc 9828 d2bc 99fe 713c 6610 4e3c
000001a0: a019 b6bc c7c9 333c 814c d4bc 7915 e0bc
000001b0: 369a a7bc c7ee 42bc 880d 4dbc 0b2e 09bd
000001c0: 64cd 9e3c eb73 253d 2ff9 16bd 197b 0ebd
000001d0: 3109 213d b8ed 9abc 914a 14bd 9a2c b3bb
000001e0: 21d2 553c 382e 5cbb b341 b43b d270 7e3c
000001f0: 0da9 27bd 0bb6 cdbb 4562 1fbc aaa5 173b
00000200: eb3b 30bd 5c79 d03c 12c8 29bd 7b45 fdbc
00000210: 0910 15bd bc91 34bd b40a d1bc 5022 d1bc
00000220: 71d3 bcbc acc5 2fbd 418a 9dbc 3587 f13c
00000230: 305e b13c 2b30 d33c cfb2 b93c 2405 aeba
00000240: 21a8 993b 6cef f8bb 2b40 31bd c61b 17bd
00000250: caf2 bebc d964 adbc 58a1 e1bb 2af6 1bbb
00000260: 5dab b9bc eed4 b03b 5471 47bc 698c f1bc
00000270: da37 4c3c fa20 013d 7bae 8fbc 676a 273d
00000280: 8029 a23c 40e2 af3c 2b20 3e3c c143 c9bc
00000290: ca5f 873b a581 fabc 983d 21bd ed0a 1a3c
000002a0: 32b0 19bd ac67 bd3c 1e5a e03c 68ef 1fbc
000002b0: e4b7 a0ba 73cc e23b f996 c5bc edad 1dbd
000002c0: 385a e0ba dcc7 15bc f21c 9abc 0b2f 2dbc
000002d0: 1cf7 1c3c 643e a0bc d0ea 0bbd c8ff a73c
000002e0: 676d 063d 7943 053c 52aa 213d bcde e03c
000002f0: 03da 4ebc fa42 c63c 8bdf 09bd b2f5 9abc
00000300: a284 77bb edf8 d23c 949a 0dbd f30d 013d
00000310: 0a8f 0abd c930 3e3c e76a f53c d23d d8bc
00000320: fcee debb 8572 a43c 3309 d5bc c80d f1bb
00000330: af8d 2e3d a232 b33c fc3c 90bc d4cb 6f3a
00000340: 3afd 643c ec40 f23c e846 25bc bd2e 2e3d
00000350: 31e4 e43c c52a cc3c 6812 c43c b6d4 2c3d
00000360: 6391 0d3c c97e 9d3b d0b0 1b3d 7c1c 27bd
00000370: bad0 fdbc 156d bb3a b5b5 a8bc d5dc f3bc
00000380: 7ed9 61bc 4ff1 92bc 3c22 1fbc 0578 a4bc
00000390: d6d9 67bb 372d 303b 9d5d 19bd d8d6 ae3b
000003a0: 64e3 5d3c c9da 0fbd d9cb 243b a1db 733c
000003b0: cbcf c13c fa43 cdbb ce29 703c 2025 0fbc
000003c0: ec7f 173d 8b01 29bd b9b0 b73b c1ef 20bc
000003d0: 6dae d03c d700 bdbb 163f 39bc d137 8bbc
000003e0: 1451 8a3c dc34 20bd 0872 193d ba2f e4bb
000003f0: 1ed0 903c 1301 7abc 8d00 cabc 7165 063d
-0.034055796 -0.0016290125 -0.030416463 0.0281114 -0.029687501 0.037072126 -0.0032530413 0.016457295
0.029094443 0.0085654035 -0.02389562 -0.017904198 -0.0024369888 0.0047513987 0.034691513 0.037743323
0.028363906 0.007738356 -0.0011537647 -0.042316016 -0.007322135 0.014175402 -0.004544726 -0.03845999
0.04400395 -0.0064746463 0.03404279 0.0071759485 0.013505804 -0.032870926 0.017984297 0.020852517
-0.0038947482 -0.037218265 -0.037589513 -0.032785658 -0.02379651 -0.022677058 -0.015385106 0.02165113
-0.013060803 0.011034482 0.026787626 0.02043876 -0.012087684 -0.015472103 -0.043498244 0.037989188
0.007823514 0.043824367 0.015229953 0.0058494713 0.030498534 -0.005794222 0.009130519 -0.029317373
0.022285257 -0.021095619 -0.03301577 0.027994432 -0.033335727 -0.015830576 -0.034246996 -0.015212867
-0.006333786 -0.036149293 0.03146876 0.017967971 0.010080625 -0.021002565 0.011947051 0.00031270328
0.023196138 0.020465788 -0.043781605 -0.0067968853 0.042937342 0.013181111 0.0037160823 0.040918097
-0.017648028 0.03523968 0.038912203 -0.036525086 0.012223023 0.039716113 0.008466122 -0.035245243
-0.015001096 -0.021136075 -0.0060027754 -0.043424834 -0.014918699 -0.011475559 -0.0028201088 -0.04303265
0.036958523 0.0125587545 -0.035998277 0.004511146 -0.02701713 -0.025654122 0.0147701735 0.012577152
-0.022229016 0.0109734 -0.025915386 -0.027353989 -0.020459276 -0.011897749 -0.012515433 -0.033491176
0.019385047 0.04039375 -0.036858734 -0.034785364 0.039315406 -0.018912181 -0.036203925 -0.0054679634
0.013050587 -0.0033596884 0.005500996 0.015529828 -0.040932704 -0.0062778047 -0.009728019 0.0023139515
-0.043025892 0.025448494 -0.041450568 -0.03091692 -0.036392245 -0.044084296 -0.025517799 -0.025529057
-0.023050042 -0.042913124 -0.019230964 0.029483417 0.021651357 0.025779804 0.02266827 -0.0013276679
0.004689232 -0.0075969007 -0.043274086 -0.03689172 -0.02330913 -0.021166252 -0.0068856888 -0.0023797848
-0.02266472 0.005396477 -0.012173016 -0.029485898 0.012464488 0.03152559 -0.017539253 0.040872958
0.01979518 0.02147019 0.011604349 -0.02456844 0.004131292 -0.030579397 -0.03936538 0.009402019
-0.03752155 0.023120724 0.027386721 -0.009761669 -0.0012261835 0.006921345 -0.024119841 -0.038495947
-0.0017116731 -0.0091418885 -0.01881263 -0.010570298 0.0095804 -0.019561 -0.03415948 0.020507708
0.032819178 0.0081337625 0.03946907 0.027449958 -0.01262522 0.024201859 -0.033660453 -0.018915985
-0.0037768264 0.025753463 -0.034571245 0.031507444 -0.03382782 0.011608311 0.029958202 -0.026396666
-0.0068033915 0.020074138 -0.026005363 -0.007356379 0.04261559 0.02187473 -0.017607205 0.0009147499
0.01397639 0.029571973 -0.010087706 0.04252504 0.027940841 0.024922738 0.023934558 0.042195044
0.00864062 0.0048063737 0.03801042 -0.04079865 -0.030983318 0.0014299477 -0.020594457 -0.029768387
-0.013784764 -0.01793733 -0.009712752 -0.020076761 -0.0035377643 0.002688242 -0.037442792 0.00533567
0.013542984 -0.03512076 0.0025145917 0.014883907 0.023658654 -0.006264207 0.0146584045 -0.008736879
0.03698723 -0.041261237 0.005605784 -0.009822787 0.025473798 -0.0057679224 -0.011306545 -0.016994389
0.016884364 -0.03911291 0.037462264 -0.0069636973 0.017677363 -0.015259045 -0.024658466 0.032811586

head.bias f4 [3]
00000000: a6d3 fa3c d05b b9ba 1ca8 333d
0.0306185 -0.0014141742 0.043861493
