CartPole/models/100-epochs.model (torch_old, 167199 bytes, 20 tensors)

conv1.weight f4 [16, 3, 5, 5]
00000000: 80ba 733c dbd3 5dbd e1b3 b9bd 28a5 c5bd
00000010: b0e0 89bc e01b 0abc 4234 cabd 8073 04bc
00000020: b20b 3dbd 1fe6 d3bd 78ac 2fbc e0fe 853d
00000030: e475 5b3d a32e ecbd 3af4 81bd 6469 133d
00000040: 2858 49bc bc69 acbc 7815 b2bd d43c 88bc
00000050: 5e97 b23d 1036 97bc 453f 9dbd 10c6 813d
00000060: d0bd f03c 4e38 adbd b403 3b3d 4a42 4ebd
00000070: 847c da3d 94d8 15bd a0f9 b23d b4bd febc
00000080: c45a b4bd 56a1 4fbd 9888 c73d ac64 a23d
00000090: b81d 453d 64c6 c6bd bcca 573d b436 b63d
000000a0: 8469 043d 62ce 03bd 602f 5cbb c0e2 89bb
000000b0: 3ebf dabd 4a09 8f3d b4e6 8dbd 52a6 5bbd
000000c0: d801 b8bd ecfc 443d 4119 9abd 6249 bb3d
000000d0: e0cc a43c 80c7 793a 2a70 943d 809c 883b
000000e0: a4c5 463d 2ea1 c5bd 2c46 98bc bceb a4bd
000000f0: d480 83bc 4849 743d 92c2 d2bd 9089 c1bb
00000100: 3470 7f3d aa9a 2cbd aa8d 66bd f0ea d1bb
00000110: 6e7e 86bd b887 bbbd 0cc8 a13d b275 1abd
00000120: 50c8 ee3c 52e5 d93d 0039 3c3d 4843 693d
00000130: 88a0 61bc a061 b23c 747b e83d 2c98 413d
00000140: 1051 be3b 8056 4d3c 986a 773d f0b6 453c
00000150: 28c2 d3bc 3472 1c3d 00d9 453c 5fa3 d5bd
00000160: 5235 1abd 67a1 cebd 40f5 6dbd 362e cf3d
00000170: 50aa 5a3c 1861 423d 7031 c83b 5a0d 60bd
00000180: 54f1 35bd 801f 01bd 205e e3bb fc45 ccbc
00000190: 7616 ac3d 1e3b 70bd e076 6f3c f896 9d3c
000001a0: 1403 383d e8b8 dabc 4c0d b43d ce69 93bd
000001b0: 6487 c23d 2d5d 82bd 706d 303d fc50 d9bc
000001c0: 9416 aa3d a43f eb3d 2955 e0bd 4812 963d
000001d0: 9e2b b7bd a01c 5c3d 0002 483d 3856 fbbc
000001e0: e084 a3bb 7e18 96bd 007a 12ba 9080 663d
000001f0: f0a9 57bc ac10 ae3d b875 c13c b53e e3bd
00000200: 303f b63d fcce 163d 04b9 c73d ee2d 82bd
00000210: c03b 713d 5e9e 2abd 804d ddbc e035 663d
00000220: 4a9a a73d dc34 38bd a072 3dbc d4ad 15bd
00000230: 4aa6 7abd 6e85 69bd 6070 423c 9051 aabd
00000240: d015 12bc ee51 a8bd 80ff d4bb d8bb c83c
00000250: d3a6 d7bd 9835 2bbc a0ff b53c 960c 9dbd
00000260: 784c 5e3d 88b3 aa3d fc7f 8e3d c4e1 1c3d
00000270: 1cc5 713d 4945 b0bd 8831 c0bc 5848 e43c
00000280: e877 61bc feb7 eb3d 60ab 4dbb 0d14 dfbd
00000290: 801a b9bd 0a9b 49bd 10d9 c4bc a27e 9dbd
000002a0: 7819 4c3d 4374 70bd 2c86 853d 508f 6cbc
000002b0: b0aa a23b e0e7 7c3c 2c21 4b3d 80fd 48bd
000002c0: e89d 4c3d 50de 05bc 362f cdbd b017 e03c
000002d0: 9882 60bc c948 83bd ae08 e6bd 78d9 d53d
000002e0: b019 b2bb 3617 9a3d bacb 833d f0d0 58bd
000002f0: f693 1fbd d80e 6abc 3ef9 8d3d 4672 993d
00000300: 183b a1bd f39d cabd 6ade 8b3d 5176 dfbd
00000310: 5c40 de3d 0241 ce3d a4a1 b63d f43b 123d
00000320: 1849 65bd d03b 513c a4f4 bb3d c828 85bc
00000330: 4099 7ebc 2468 9dbd e919 bdbd e2c4 cfbd
00000340: 46d2 eb3d 7071 a93d a08a 8d3d d8f8 d1bc
00000350: e093 d6bc 6cb4 4f3d 2cd6 b83d 7e02 933d
00000360: feb0 df3d 300d bcbd aa0c 8d3d e108 ddbd
00000370: e050 003b 0a77 e63d b032 f8bb a47c 8cbd
00000380: 4527 90bd a0c8 69bb ea22 1fbd 88ed 6a3d
00000390: c2a8 d4bd 7cb0 a53d 2861 01bd 4304 85bd
000003a0: 6022 2a3d 9b79 d1bd c01c 983d 8446 acbc
000003b0: 584d 95bc 70bb 823d d8cb ba3d beca c3bd
000003c0: 6409 7e3d cc16 94bd c839 e8bc 3c9f 50bd
000003d0: 729b 05bd 18a0 d3bd 029a cb3d 04e0 763d
000003e0: d046 9fbb dad4 53bd 6ea6 c5bd 03f3 78bd
000003f0: 505e 6b3d 36a8 16bd 3036 923c 3e0c cc3d
0.014876008 -0.05415712 -0.09067512 -0.09650642 -0.016830772 -0.0084294975 -0.09873249 -0.008084178
-0.04615373 -0.103466265 -0.010722272 0.06542754 0.053579226 -0.11532333 -0.06345411 0.03598918
-0.0122890845 -0.021046512 -0.08695501 -0.016630568 0.08720277 -0.018458396 -0.07678083 0.063366055
0.029387385 -0.08458005 0.04565783 -0.050356187 0.10668281 -0.036583498 0.087390184 -0.031096317
-0.08806375 -0.05069097 0.0974285 0.07929358 0.048124045 -0.09705809 0.052683577 0.088971525
0.03232719 -0.032179244 -0.0033597574 -0.004207939 -0.10681008 0.069841936 -0.06928769 -0.053625412
-0.08984727 0.048092768 -0.07524348 0.09144856 0.020117223 0.0009528324 0.07247956 0.004169047
0.04852833 -0.09649883 -0.018588148 -0.08052775 -0.016052641 0.0596402 -0.102910176 -0.0059062913
0.062362865 -0.042139687 -0.056287445 -0.0064061806 -0.06567083 -0.09156746 0.07899484 -0.0377099
0.02914825 0.106394425 0.045952797 0.05694893 -0.013771184 0.021775067 0.11351672 0.047264263
0.0058080032 0.01253283 0.06040439 0.0120675415 -0.025849417 0.03819485 0.012075663 -0.10431551
-0.037648506 -0.10089379 -0.058095217 0.10116236 0.01334627 0.047455877 0.006109409 -0.054700233
-0.0444196 -0.03152418 -0.006938711 -0.024935715 0.084027216 -0.05865013 0.014615744 0.019237027
0.04492481 -0.026699498 0.08791599 -0.07197915 0.0949848 -0.06365428 0.043073118 -0.026527874
0.08305088 0.11486748 -0.10953743 0.073277056 -0.08943866 0.053738236 0.048830032 -0.03068076
-0.004990205 -0.0732889 -0.00055876374 0.05627495 -0.013163075 0.08499274 0.023615703 -0.11095945
0.08898771 0.03681849 0.09752086 -0.06356417 0.058894873 -0.041654937 -0.027014494 0.056203723
0.08183725 -0.044972286 -0.011562973 -0.03654273 -0.06119374 -0.057012014 0.011867613 -0.08316338
-0.008916333 -0.08218752 -0.0065001845 0.024503633 -0.10529866 -0.010449789 0.022216618 -0.07668416
0.054272145 0.08335024 0.06958005 0.038301244 0.05902587 -0.08606965 -0.023461118 0.027866527
-0.013761498 0.11509703 -0.0031382665 -0.10892496 -0.090382576 -0.049220122 -0.024029285 -0.07690169
0.049828976 -0.058704626 0.06519732 -0.014438465 0.004964195 0.015436143 0.049592182 -0.04906988
0.04995528 -0.008170679 -0.100187704 0.027355045 -0.013703011 -0.06410367 -0.11232124 0.104418695
-0.005435191 0.075239584 0.06435342 -0.052933633 -0.038959466 -0.014285766 0.06932305 0.07492499
-0.07872599 -0.09893408 0.068295315 -0.10911239 0.10852119 0.10070993 0.08917549 0.035701707
-0.05597791 0.012770608 0.09177521 -0.016254798 -0.015539467 -0.07685879 -0.092334576 -0.10144974
0.11514716 0.082735896 0.06911206 -0.025631353 -0.02619356 0.050709173 0.09025225 0.0717821
0.109224305 -0.09182203 0.06887181 -0.10792709 0.0019579455 0.11253174 -0.007574402 -0.06859711
-0.0703874 -0.003567256 -0.038851656 0.057355434 -0.103837505 0.08090302 -0.031586796 -0.064949535
0.04153669 -0.102282725 0.074273586 -0.021029718 -0.018225357 0.06383407 0.09120911 -0.095601544
0.062020674 -0.07230911 -0.028347865 -0.050933108 -0.032618947 -0.1033327 0.09941484 0.06027223
-0.0048607364 -0.051716663 -0.096508846 -0.06077863 0.05746299 -0.036781512 0.017848104 0.099632725

conv1.bias f4 [16]
00000000: 1019 ee3b c425 363d 0376 e0bd e620 33bd
00000010: e033 623c a485 d7bd cba6 c1bd 32b8 bf3d
00000020: 2a66 3ebd 4e67 a53d 104d 0bbd b0e7 46bc
00000030: 74cd 653d c831 9c3c 2785 93bd 78b9 4fbd
0.0072661713 0.04446961 -0.10960009 -0.043732546 0.013806313 -0.10523537 -0.09455641 0.09361304
-0.04648415 0.080763444 -0.03400904 -0.0121402 0.05610414 0.019066706 -0.07203131 -0.050713986

bn1.weight f4 [16]
00000000: 0000 803f 0000 803f 0000 803f 0000 803f
00000010: 0000 803f 0000 803f 0000 803f 0000 803f
00000020: 0000 803f 0000 803f 0000 803f 0000 803f
00000030: 0000 803f 0000 803f 0000 803f 0000 803f
1.0 1.0 1.0 1.0 1.0 1.0 1.0 1.0
1.0 1.0 1.0 1.0 1.0 1.0 1.0 1.0

bn1.bias f4 [16]
00000000: 0000 0000 0000 0000 0000 0000 0000 0000
00000010: 0000 0000 0000 0000 0000 0000 0000 0000
00000020: 0000 0000 0000 0000 0000 0000 0000 0000
00000030: 0000 0000 0000 0000 0000 0000 0000 0000
0.0 0.0 0.0 0.0 0.0 0.0 0.0 0.0
0.0 0.0 0.0 0.0 0.0 0.0 0.0 0.0

bn1.running_mean f4 [16]
00000000: 5db8 ed3b 7c15 363d 588e e0bd aeec 32bd
00000010: 5238 623c 2a8a d7bd 38a1 c1bd 75c5 bf3d
00000020: 8468 3ebd 046a a53d 585d 0bbd 1761 46bc
00000030: cddd 653d 690b 9c3c 087c 93bd 45c4 4fbd
0.007254644 0.044454083 -0.1096465 -0.043682747 0.013807373 -0.105243996 -0.09454578 0.09363834
-0.046486393 0.080768615 -0.034024566 -0.012108109 0.05611973 0.01904841 -0.072013915 -0.050724287

bn1.running_var f4 [16]
00000000: 0bd0 2339 010a a138 3795 c438 c9b7 0938
00000010: 7488 5b38 f2e9 e538 d765 ad38 ad9d c738
00000020: 5d65 e338 0cbb cd38 0d51 6339 8559 9038
00000030: 0c3b 1938 3999 ba38 3b70 fc38 4b31 7b38
0.00015622393 7.6789416e-05 9.373802e-05 3.283451e-05 5.234075e-05 0.000109631466 8.268252e-05 9.518429e-05
0.00010843084 9.810002e-05 0.00021678601 6.8831294e-05 3.6533034e-05 8.897711e-05 0.00012037201 5.988897e-05

conv2.weight f4 [32, 16, 5, 5]
00000000: 2866 bb3b ea1b 2bbd 391a 063d f0cb 0fbd
00000010: 2d28 edbc 404f 023a c0e7 acba 79a6 0f3d
00000020: a0a3 65bb ba5d 08bd 209f b4bc a00b 7fbc
00000030: 3b6b 1d3d e5c9 2cbd 4af4 b13c b054 fa3b
00000040: 19e2 2b3d 6a40 1cbd 78ab 57bc 802a 883b
00000050: 5af5 85bc d6fc 8abc e81a eb3b ed3f dbbc
00000060: 6c4f 3cbc d60d 1dbd 3698 db3c 999c 2a3d
00000070: da7c ab3c 72bd 36bd 7ab4 eabc d1d0 013d
00000080: e62f e73c f2da e43c cd51 043d c010 a63a
00000090: 2161 2c3d 2ae7 a2bc 46f9 a63c 8d1b 183d
000000a0: 24de 94bc fd60 d3bc a453 7d3c 730b 1abd
000000b0: 8de6 1e3d a3d4 e4bc 4e89 c03c 202b 69bc
000000c0: d039 ccbb e0a6 163c 8eed de3c e8e2 353c
000000d0: 0c89 203c d464 053c 562f cc3c bd8c f1bc
000000e0: 772c b4bc 6a08 b93c d8c5 28bd f7ae 123d
000000f0: ba98 ac3c 3ee9 0fbd 8ca5 12bc 1ab2 c63c
00000100: 8ddb 243d 7d91 e2bc d82d 45bd 95d3 0bbd
00000110: f0bd 8abc e90a 303d 1410 473c c5a2 0abd
00000120: deb3 29bd c06b 993a 70ce b03b 40dd c9bc
00000130: 7128 1d3d 8b28 3e3d 45b4 163d 9bf5 243d
00000140: 2d4e babc a0c6 f63a 22f5 bb3c c37b fabc
00000150: 4e76 cf3c 8dbf 0ebd 2c40 0f3c 30c9 24bd
00000160: d4ab 4bbc 0d3b 3fbd c08e a4ba 7e8f ea3c
00000170: c264 d03c 82ce 2abd 4de7 473d 309e aebb
00000180: a8ca 423c 7aa5 32bd 4da1 16bd 866e a23c
00000190: b238 f83c 5bda 2ebd 1295 ef3c 6703 013d
000001a0: ac12 0abd 638e 273d 0d04 afbc 2e7c 8b3c
000001b0: 4897 51bc e005 3cbc 0c77 04bd c6c1 07bd
000001c0: 6cec 2fbc 234f 353d 4d91 bcbc a020 d2ba
000001d0: 2445 793c e8d7 12bd 8f4e 4cbd 69df 4b3d
000001e0: 1d08 043d 58c5 0dbc 3fdd 2c3d 2a3a a73c
000001f0: 136d 073d ca53 09bd 6603 92bc 6984 2d3d
00000200: 302e c7bb 181e b2bb 063a af3c b2f2 01bd
00000210: 5045 e1bc b3ae 16bd 9c52 7c3c 4bac 3abd
00000220: c26d 873c 009f 48bb 400b b9bb d8cc 95bb
00000230: 05bb 1abd 6b5a 2b3d b890 3fbc d258 32bd
00000240: 32c9 fa3c 784f 31bd 3a45 c73c f8a8 7cbc
00000250: 0a02 b53c d394 0f3d 0a4a 03bd edba 03bd
00000260: c08a a0ba 7a28 f8bc 8a3b a3bc 4e5c 0ebd
00000270: 600b 74bb a1a1 3b3d 288d 42bc d604 a73c
00000280: 9252 43bd a0fe 24bb 70aa d43b d70c b4bc
00000290: 109a d6bb 782c 273c e3c2 203d 8ef8 d63c
000002a0: b2c4 ef3c 23a0 cabc 8325 d9bc 12fd a13c
000002b0: ca9e cbbc 9075 26bd b39f c0bc 132b dbbc
000002c0: 5035 b83b 1850 39bd 30b4 05bb 7346 4a3d
000002d0: aa09 d9bc 7f38 093d 4c9f 383c 504c 24bd
000002e0: cb73 023d 91fc 283d 8029 353c d254 8b3c
000002f0: d1f1 263d 2970 133d b0be 59bb b73b a8bc
00000300: 7a7c cc3c 5827 42bd fd6a d7bc 3822 0dbd
00000310: 855e 283d b5a6 45bd 30ff bdbc 8143 223d
00000320: afb7 473d 036b 9cbc b514 05bd 00fe 37bc
00000330: c27f dd3c 1925 363d 2be6 36bd 8017 dcbb
00000340: a896 dabb efcf 3bbd aad7 df3c ae02 d53c
00000350: 049e 5c3c 3573 04bd b47c 6b3c 4c88 4fbc
00000360: 00e2 38b9 c6b2 e33c 106e fdbb b201 933c
00000370: 2090 26bb 9806 863b 1a50 a53c 8426 84bc
00000380: d986 323d 5ade 89bc 30ec 43bb dea4 ee3c
00000390: 30ad ffbc 80cd b1bb 5017 a3bb a718 ddbc
000003a0: e020 76bb 20c1 babc 20f7 10bc a0c1 01bb
000003b0: c278 1cbd b0ac 08bb fd28 2d3d 3711 45bd
000003c0: 00b6 743a 6c4c 21bc a0b3 43bb 9487 6a3c
000003d0: 400f f33b 8089 c3bc b7bf a3bc 78a5 7cbc
000003e0: 0892 5abc de45 8a3c 2640 26bd a842 283c
000003f0: e881 b63b c177 143d 50f7 43bd 5976 153d
0.005718965 -0.041774668 0.03273985 -0.0351066 -0.028949821 0.00049709156 -0.0013191625 0.03507087
-0.0035040155 -0.03329251 -0.022048533 -0.015566736 0.03843234 -0.04218473 0.021722931 0.00763949
0.04196367 -0.038147368 -0.01316344 0.004155457 -0.016352344 -0.016966265 0.0071748383 -0.02676388
-0.011493545 -0.038343273 0.026805978 0.04165325 0.020933557 -0.044614263 -0.028650511 0.031693283
0.028221082 0.027936433 0.032304574 0.0012669787 0.042084817 -0.019885618 0.020382535 0.03713565
-0.018172331 -0.025803084 0.015461836 -0.037608575 0.03879409 -0.027933424 0.023502972 -0.014231473
-0.0062324777 0.00919506 0.027212884 0.011101462 0.0097982995 0.008141715 0.024924915 -0.029486055
-0.021993859 0.02258702 -0.041204304 0.03581139 0.02106892 -0.035134546 -0.008950602 0.024254847
0.040248442 -0.027657265 -0.048139423 -0.034137327 -0.016936272 0.042979155 0.012149829 -0.033846635
-0.0414313 0.0011705086 0.005395703 -0.024641633 0.038368646 0.046425384 0.036793012 0.04027329
-0.022742355 0.0018827505 0.022944037 -0.030576592 0.025324967 -0.034850646 0.008743327 -0.04023093
-0.012431104 -0.046687175 -0.001255475 0.028632876 0.02543867 -0.041700847 0.04880457 -0.005328916
0.011889137 -0.043614842 -0.036774922 0.019828092 0.030300472 -0.04268871 0.029245887 0.031497385
-0.033709213 0.040907275 -0.021364236 0.017026987 -0.012792416 -0.01147601 -0.032340094 -0.03314378
-0.01073752 0.044264924 -0.023018504 -0.0016031452 0.015214238 -0.035850435 -0.049879607 0.049773607
0.0322343 -0.008653007 0.042203184 0.020413477 0.033063006 -0.033527173 -0.017823886 0.042362604
-0.006078504 -0.0054357164 0.021389972 -0.031725593 -0.027498871 -0.0367877 0.015400555 -0.045574468
0.016531829 -0.003061235 -0.005647093 -0.0045715384 -0.037776012 0.041834276 -0.0116922185 -0.043541737
0.030613516 -0.043288678 0.024325002 -0.015421145 0.022095699 0.03505404 -0.03205303 -0.03216069
-0.0012248382 -0.030292738 -0.019925851 -0.034755997 -0.0037238225 0.04580844 -0.011874475 0.020388048
-0.047686167 -0.0025176182 0.0064900443 -0.021978779 -0.0065491274 0.010203473 0.03924836 0.026241567
0.029268596 -0.024734562 -0.026507145 0.019773994 -0.02485599 -0.04063946 -0.02351365 -0.026753938
0.0056215897 -0.0452424 -0.002040159 0.04938359 -0.026493866 0.033501144 0.011268448 -0.04011184
0.03184871 0.04125649 0.011057258 0.017008219 0.040757958 0.035995636 -0.003322523 -0.020536287
0.024961699 -0.047400802 -0.026296133 -0.03445646 0.041105766 -0.048254687 -0.023192972 0.039615158
0.04875916 -0.019093996 -0.03249045 -0.011229992 0.027038459 0.044468973 -0.0446531 -0.0067166686
-0.0066707917 -0.045852598 0.027324516 0.026002254 0.013465408 -0.032336432 0.014372993 -0.012666773
-0.00017631799 0.027795207 -0.0077340677 0.017945144 -0.0025415495 0.0040901415 0.020179797 -0.016131647
0.043585632 -0.016829658 -0.0029895417 0.02913135 -0.031210512 -0.005426109 -0.0049771443 -0.026989294
-0.0037556216 -0.022797167 -0.008847982 -0.0019799247 -0.0382011 -0.0020854883 0.042275418 -0.04811212
0.00093349814 -0.009844881 -0.0029861704 0.014314551 0.0074175894 -0.023869276 -0.019988878 -0.01542031
-0.013340481 0.016879018 -0.04058852 0.010269798 0.0055696853 0.03624702 -0.047843277 0.03648982

conv2.bias f4 [32]
00000000: 6003 39bd 0078 dbbc cd5f 45bd 5f4e 32bd
00000010: 6e4f fb3c 4083 dfbc 82ac 853c 4595 293d
00000020: a216 c83c e6aa 02bd bd85 38bd 2cea 5cbc
00000030: a2c1 46bd d074 0bbb 0d24 0c3d 14f9 53bc
00000040: 036b 3fbd 0321 39bd f890 68bc 0821 03bc
00000050: b6db 02bd 3289 4abd 0c2d 6d3c 71a3 0f3d
00000060: 0d90 3b3d cd06 e2bc e063 213b fde6 00bd
00000070: faa5 02bd 53da 4abd 5eec b63c 7729 1f3d
-0.045169234 -0.026790619 -0.048187066 -0.04353177 0.030677523 -0.027284265 0.01631761 0.04140212
0.024424855 -0.031901263 -0.045049418 -0.013483565 -0.048524506 -0.0021279342 0.03421407 -0.012937803
-0.046732914 -0.045197498 -0.0141947195 -0.008003481 -0.031947814 -0.049447246 0.014476072 0.03506798
0.045791674 -0.027591133 0.002462618 -0.031470288 -0.03189657 -0.049524616 0.022329506 0.038857903

bn2.weight f4 [32]
00000000: 0000 803f 0000 803f 0000 803f 0000 803f
00000010: 0000 803f 0000 803f 0000 803f 0000 803f
00000020: 0000 803f 0000 803f 0000 803f 0000 803f
00000030: 0000 803f 0000 803f 0000 803f 0000 803f
00000040: 0000 803f 0000 803f 0000 803f 0000 803f
00000050: 0000 803f 0000 803f 0000 803f 0000 803f
00000060: 0000 803f 0000 803f 0000 803f 0000 803f
00000070: 0000 803f 0000 803f 0000 803f 0000 803f
1.0 1.0 1.0 1.0 1.0 1.0 1.0 1.0
1.0 1.0 1.0 1.0 1.0 1.0 1.0 1.0
1.0 1.0 1.0 1.0 1.0 1.0 1.0 1.0
1.0 1.0 1.0 1.0 1.0 1.0 1.0 1.0

bn2.bias f4 [32]
00000000: 0000 0000 0000 0000 0000 0000 0000 0000
00000010: 0000 0000 0000 0000 0000 0000 0000 0000
00000020: 0000 0000 0000 0000 0000 0000 0000 0000
00000030: 0000 0000 0000 0000 0000 0000 0000 0000
00000040: 0000 0000 0000 0000 0000 0000 0000 0000
00000050: 0000 0000 0000 0000 0000 0000 0000 0000
00000060: 0000 0000 0000 0000 0000 0000 0000 0000
00000070: 0000 0000 0000 0000 0000 0000 0000 0000
0.0 0.0 0.0 0.0 0.0 0.0 0.0 0.0
0.0 0.0 0.0 0.0 0.0 0.0 0.0 0.0
0.0 0.0 0.0 0.0 0.0 0.0 0.0 0.0
0.0 0.0 0.0 0.0 0.0 0.0 0.0 0.0

bn2.running_mean f4 [32]
00000000: 1126 13be 7390 09be 3fa0 19bd e5e9 473d
00000010: 34ad aebb 733f a4bc ae59 0bbc f828 26bd
00000020: 1ae3 e8bb 4ce1 4a3d d7ff 22be 7ce9 88bd
00000030: 99b9 81bd caef 82bd f3d8 d53c a8e6 0fbd
00000040: efec 6fbd b8fc 75bb 5a04 bebc ee71 1ebd
00000050: e9f5 553c 9bd0 7fbd 4d68 1f3e afdb 89bd
00000060: 044b 893d 05c2 00be 4a60 f53b 4c51 2a3d
00000070: 8017 00bd 6bd2 f53c 67b4 ba3c 7dcb 97bd
-0.1436999 -0.13434009 -0.03750634 0.048807044 -0.005330706 -0.020049786 -0.008505268 -0.040566415
-0.0071071507 0.049531266 -0.15917908 -0.066851586 -0.06334228 -0.063933924 0.026104426 -0.03513208
-0.058575567 -0.0037534665 -0.023195434 -0.03868287 0.013059118 -0.0624548 0.15567131 -0.067313544
0.06703761 -0.12574013 0.007488285 0.041581437 -0.03127241 0.030007562 0.0227911 -0.07411859

bn2.running_var f4 [32]
00000000: 97a9 383e 4979 143e 2e86 e33d ae75 023e
00000010: a208 1d3e 8127 d63d bae5 993d de1e 1f3e
00000020: 7503 163e 4c3f f43d 146b 153e ca11 fb3d
00000030: 5aea bd3d a10a fb3d 2180 6a3e f418 a63d
00000040: e70e 423e 3cd3 063e fd21 3b3d bed2 283e
00000050: a8af 163e c5f2 8d3d 2f58 753e 9027 033e
00000060: 0c79 993d 1005 1f3e ed0d b03d 65fc 003e
00000070: c4e9 b03d 5464 ad3d ecff a43d 1f09 003e
0.18033443 0.14499392 0.11109577 0.12740204 0.15335324 0.104567535 0.0751452 0.15539119
0.14649756 0.119261354 0.14591628 0.12259252 0.09273215 0.12257887 0.2290044 0.08110228
0.18950997 0.13166517 0.04568671 0.16486642 0.14715445 0.0693107 0.2395942 0.1280806
0.07493791 0.15529275 0.08596406 0.12596281 0.08638337 0.08466402 0.08056626 0.1250348

conv3.weight f4 [32, 32, 5, 5]
00000000: b2d4 d03c 7ec4 d73c 32f3 f63c 9468 db3c
00000010: eab3 efbc f866 303c 5064 4b3c 1472 1d3c
00000020: 6916 07bd 4642 c3bc e046 f43b e22b e93c
00000030: 2006 f6ba 4d11 063d 5827 be3b c000 fbbc
00000040: 84e8 453c 405c 6c3a ecd3 63bc 0312 023d
00000050: e482 893c 6a80 f93c e601 873c d8a3 a1bc
00000060: 64f0 443c 6a49 f83c c3d4 a0bc 122f d73c
00000070: 5839 e0bb 9c64 10bd 48dc c33c 2cbc 633c
00000080: c04c 01bc ec8a eebc 38fe 7f3c 1b70 0b3d
00000090: 1c03 6cbc 48cc 973c 6fb0 0c3d 903f 25bb
000000a0: 1a30 a83c 6326 b9bc 82b7 b03c 0663 24bc
000000b0: 88a2 003c e06f 833a 8049 c2b9 600a 49bb
000000c0: e0ee 93bb aead f73c c013 593a a48a 183c
000000d0: 9223 de3c 8c19 d8bc 78e9 a0bb 009d b739
000000e0: 182c dd3c 2a23 0abd 00f9 66bc fde4 e3bc
000000f0: 6815 d5bb 8c7e 813c 0a24 e43c 9264 d83c
00000100: 38dc 01bc d85a 2e3c 0bbd 0d3d 5930 99bc
00000110: f0b7 9a3b a09a 2fbb ac84 bbbb 0ca0 133c
00000120: 38a2 b83c c010 823b a00e 74bb 1892 e5bc
00000130: 0e8c a03c 20f3 bfbc 84d0 b8bc 4e8e af3c
00000140: f0d5 e43b 50d5 aa3b 4400 0bbc ddd2 08bd
00000150: 6bd4 a9bc 8004 ec3b 6ee0 f5bc fe26 fe3c
00000160: 7c4c cb3c d390 0b3d 12df dbbc 9cf3 be3c
00000170: 843e 5c3c 283a b53b a0c6 3ebb 9c10 94bb
00000180: 1bd1 c7bc 8891 493c 491d 0d3d 8492 08bd
00000190: 068c e03c c003 acbc 935d f2bc 0c28 a93c
000001a0: 7f95 0abd ea79 eb3c a813 8c3b cc89 663c
000001b0: 806a 91b9 1e9f 35bc abcc 91bc 281c db3c
000001c0: 2a1b cf3c 16ce 84bc d4ff 87bc be62 a83c
000001d0: 6c39 acbb c0de 803a 180e 94bb db9d 96bc
000001e0: 6674 f9bc 3875 3b3c 26d7 96bc 9cc5 20bc
000001f0: 42a1 37bc 54be 743c 280e ebbb 0020 0b3b
00000200: 48ad 56bc 28a5 c83c 80cc 393a 208c 443b
00000210: 3229 d3bc 50a4 20bb 012e a6bc 9cd1 6d3c
00000220: 4b12 e7bc 6c11 b53c 94de 4d3c 9691 89bc
00000230: d2b9 dfbc 4324 b1bc feeb d63c e2e7 e93c
00000240: e0eb 8aba 147b b3bc 20d6 edba e8c2 4cbc
00000250: a8e8 56bc 80cc 6e3a 402a 70bb 6430 01bd
00000260: 00fd 923b 8027 5d3c 42a1 e73c 0ad5 a4bc
00000270: 9075 92bb 6c94 a3bb 9afa d23c 50c6 863c
00000280: f268 8a3c 6056 c7bb 05e2 b7bc c06f 2eba
00000290: af80 0dbd 0506 97bc 1f0c 013d 327f 833c
000002a0: 7043 863b 6ed0 d33c feb6 06bc 3b79 0c3d
000002b0: fcdf e1bc c6e5 35bc 867f 01bd 9ccb 13bc
000002c0: 8c87 7e3c 2448 a9bb 0cef 093c 6080 d53b
000002d0: 10ed 523c e8e8 c83b 8619 e43c e0fc e13a
000002e0: 048e c9bc c8c6 853c 80b2 b5bc 7678 c5bc
000002f0: 3c28 f0bc 71a9 0abd 3742 00bd 00ab ca3c
00000300: f87b a0bb 80ea e0b9 4fd3 f1bc 6166 c4bc
00000310: 9aa6 cd3c 606e 0ebd 4877 d73c f882 733c
00000320: 6a0e 993c 4aff e9bc 3ec5 72bc e076 80bc
00000330: 84fa 12bc 9c3b c1bc c3e0 c3bc d1d0 053d
00000340: 0e6b b03c 7e62 dabc 278f 8ebc 8c83 8f3c
00000350: 5cdc 10bc e28d 00bd 2e75 a0bc 4aa0 0cbd
00000360: 8256 a83c 5ac9 873c 9cd6 a03c 18ad d43b
00000370: de26 02bd 8ae7 dabc 66b5 ed3c 8010 99ba
00000380: 3c27 afbb 942c 3f3c 3c8f b93c 9809 c6bc
00000390: 5576 0bbd dcb4 efbc c1c2 023d 684c fdbc
000003a0: c895 c53c 4860 993c de4e 2dbc f99d 9dbc
000003b0: 4f6e 0e3d ef69 003d a612 9d3c 2a67 63bc
000003c0: 2877 29bc c8fe d0bb 18ce b7bc 38d0 d83c
000003d0: aca9 c33c b28d 0fbd 35ef 013d ae55 f93c
000003e0: e4cb cabc 2aa4 02bd 7443 dcbc 9819 edbb
000003f0: fc4f 0a3c 7c1c b23c 80d5 e3bc fe4d 8b3c
0.025492046 0.026338812 0.030145261 0.026783265 -0.029260594 0.010766737 0.012414053 0.009609718
-0.032980356 -0.023835313 0.007454738 0.028463308 -0.0018770136 0.032731343 0.00580303 -0.030640006
0.012079362 0.0009016432 -0.013905507 0.03175546 0.016786046 0.03045674 0.016480397 -0.019731447
0.012020204 0.030308444 -0.019632703 0.026267562 -0.0068427734 -0.0352522 0.02390875 0.013899844
-0.007891834 -0.029118977 0.015624575 0.03404246 -0.014405038 0.018530026 0.034347948 -0.0025214888
0.02053075 -0.022601312 0.021571878 -0.010033375 0.0078512505 0.0010027848 -0.00037057325 -0.003067635
-0.00451456 0.030234184 0.0008280836 0.009310398 0.02711657 -0.02637937 -0.004910644 0.00035021454
0.026998565 -0.03372494 -0.014097452 -0.027819151 -0.006502796 0.015807413 0.027849216 0.026415143
-0.007926039 0.010641776 0.034604114 -0.018699812 0.004721634 -0.0026795045 -0.005722603 0.009010326
0.02253829 0.003969282 -0.0037240162 -0.028023764 0.019598033 -0.02343136 -0.022560365 0.02143016
0.006983511 0.005213417 -0.00848395 -0.03340422 -0.020731172 0.007202685 -0.030014243 0.031024452
0.024816744 0.034073662 -0.026839767 0.023309521 0.013442639 0.0055306144 -0.002911009 -0.0045185816
-0.024391701 0.012302764 0.034451757 -0.033342853 0.027410518 -0.020997882 -0.029585635 0.020648979
-0.033833977 0.028744657 0.004274804 0.014070939 -0.00027735904 -0.0110853 -0.017797789 0.026746824
0.025281508 -0.01621155 -0.01660148 0.020554896 -0.0052558687 0.000983201 -0.0045182817 -0.018385818
-0.03045101 0.011441521 -0.018413138 -0.009812739 -0.01120788 0.014937956 -0.0071733184 0.002122879
-0.013102837 0.024492815 0.0007087663 0.0029990748 -0.02577648 -0.0024512 -0.020285608 0.014515307
-0.028206965 0.022103034 0.012565274 -0.016793054 -0.027310286 -0.021623736 0.026235577 0.028552953
-0.0010598861 -0.021909274 -0.0018145479 -0.012497641 -0.013116993 0.00091094524 -0.0036646277 -0.03154029
0.0044857264 0.013498187 0.028275136 -0.020121116 -0.004469581 -0.0049920585 0.025754262 0.016451985
0.016895745 -0.0060832947 -0.022446642 -0.0006654225 -0.03454655 -0.018435488 0.0315057 0.016051862
0.0040973946 0.025856223 -0.00822234 0.034295302 -0.027572624 -0.011102146 -0.031615756 -0.009020712
0.015535247 -0.0051660705 0.00841881 0.0065155476 0.012873903 0.00613128 0.027844202 0.00172415
-0.024603851 0.016330138 -0.022179842 -0.024105292 -0.02931606 -0.033853 -0.031313147 0.024739742
-0.0048975907 -0.00042899325 -0.029519705 -0.0239746 0.025103856 -0.03477323 0.026301995 0.014862768
0.018683631 -0.028564114 -0.014817534 -0.015681684 -0.00897086 -0.023587994 -0.023910886 0.032669846
0.021535423 -0.026658293 -0.017402245 0.017518781 -0.0088416 -0.03138531 -0.019587126 -0.03433255
0.020549063 0.016575504 0.019633584 0.006490361 -0.031775348 -0.026721735 0.029017162 -0.0011677891
-0.0053452533 0.011668343 0.022651307 -0.024174497 -0.034048397 -0.029261045 0.031924013 -0.030920222
0.024119273 0.018722668 -0.010577885 -0.019240366 0.034773167 0.031351026 0.019173931 -0.013879577
-0.0103433505 -0.0063780285 -0.02243714 0.026466474 0.023884617 -0.03504724 0.031722266 0.030436363
-0.024755426 -0.03189484 -0.026887633 -0.007235717 0.008441921 0.021742098 -0.027811766 0.017004963

conv3.bias f4 [32]
00000000: 3003 483b d68f c93c bc71 a3bb 01e5 99bc
00000010: f066 be3c 4424 cb3c 1058 5b3b 78e7 b9bc
00000020: d149 103d 427b 0ebc 9fc2 053d b0e2 3a3c
00000030: 5490 b83c acf0 dd3c 6a7a cb3c 0290 823c
00000040: a4e8 acbb 20e9 cd3b c8af 5a3c 3840 583c
00000050: cc77 3f3c 601a 933a 2ab8 c2bc d0d8 fdbc
00000060: d5c5 05bd d9bc 0a3d 7e29 ae3c 60ad f8ba
00000070: 187d 293c b6df c3bc 80ca e1ba f381 8ebc
0.0030519478 0.02460472 -0.0049879234 -0.018785955 0.023242444 0.024797566 0.0033469237 -0.02269338
0.035226647 -0.008696379 0.03265631 0.011406586 0.022529759 0.0270923 0.024838645 0.015937809
-0.0052767564 0.006283894 0.013347574 0.013198905 0.011686277 0.001122307 -0.023769457 -0.030987173
-0.03265937 0.033871505 0.02126002 -0.0018972568 0.010344766 -0.023910385 -0.0017226487 -0.017395949

bn3.weight f4 [32]
00000000: 0000 803f 0000 803f 0000 803f 0000 803f
00000010: 0000 803f 0000 803f 0000 803f 0000 803f
00000020: 0000 803f 0000 803f 0000 803f 0000 803f
00000030: 0000 803f 0000 803f 0000 803f 0000 803f
00000040: 0000 803f 0000 803f 0000 803f 0000 803f
00000050: 0000 803f 0000 803f 0000 803f 0000 803f
00000060: 0000 803f 0000 803f 0000 803f 0000 803f
00000070: 0000 803f 0000 803f 0000 803f 0000 803f
1.0 1.0 1.0 1.0 1.0 1.0 1.0 1.0
1.0 1.0 1.0 1.0 1.0 1.0 1.0 1.0
1.0 1.0 1.0 1.0 1.0 1.0 1.0 1.0
1.0 1.0 1.0 1.0 1.0 1.0 1.0 1.0

bn3.bias f4 [32]
00000000: 0000 0000 0000 0000 0000 0000 0000 0000
00000010: 0000 0000 0000 0000 0000 0000 0000 0000
00000020: 0000 0000 0000 0000 0000 0000 0000 0000
00000030: 0000 0000 0000 0000 0000 0000 0000 0000
00000040: 0000 0000 0000 0000 0000 0000 0000 0000
00000050: 0000 0000 0000 0000 0000 0000 0000 0000
00000060: 0000 0000 0000 0000 0000 0000 0000 0000
00000070: 0000 0000 0000 0000 0000 0000 0000 0000
0.0 0.0 0.0 0.0 0.0 0.0 0.0 0.0
0.0 0.0 0.0 0.0 0.0 0.0 0.0 0.0
0.0 0.0 0.0 0.0 0.0 0.0 0.0 0.0
0.0 0.0 0.0 0.0 0.0 0.0 0.0 0.0

bn3.running_mean f4 [32]
00000000: f7de 8ebe dc29 233e 4143 703e 9f3d cb3c
00000010: 676b debd 4db4 85bb 7cac 693e 8ab9 cbbd
00000020: 8e96 5cbd 6209 1ebe e0e8 0dbe 4cca 7f3e
00000030: 441e 213e 1e55 f5bc cc7b c1bd 0c43 9bbc
00000040: 3404 80be 9f23 90bc 7ccc 52be a439 263c
00000050: c486 f53d 0ad2 c53d be90 73be 3687 193e
00000060: d13e b9be 803a 793d 1746 843e 4a09 75bc
00000070: 3d43 93bc 01df 893e 1548 be3c 6c4b 90bd
-0.27904484 0.15933937 0.23463155 0.024809657 -0.10860329 -0.0040803314 0.22819704 -0.09947498
-0.053854518 -0.15433267 -0.13858366 0.24979514 0.15734202 -0.029947814 -0.094474405 -0.018952869
-0.25003207 -0.01759511 -0.20585817 0.0101455785 0.11988595 0.096592024 -0.23785684 0.14992985
-0.36180738 0.060846806 0.25834724 -0.014955828 -0.017976398 0.2692795 0.02322773 -0.070456356

bn3.running_var f4 [32]
00000000: 54ca 243e 8e4a 253e 5214 893e 55e3 d93d
00000010: 5a4d 143e ec0c 253e f844 123e 12ba 043e
00000020: 34e2 c23d 8389 733e 091e 293e 8e25 fb3d
00000030: 5edd 613e 55d5 063e 392a 053e 485a 1d3e
00000040: cb4b 993e 512d 133e 84a3 a03e b004 0e3e
00000050: ef80 023e 3601 4d3e 860e 083e 7f8a 3d3e
00000060: 5239 393e 32c4 ae3d 7509 0c3e e43e 283e
00000070: 0fcf ea3d cbc1 6b3e 574a b83d 191c fe3d
0.16092807 0.16141722 0.26773316 0.10639063 0.14482632 0.1611821 0.14284122 0.12961605
0.09515801 0.23782925 0.16515364 0.12263022 0.22057101 0.13167317 0.13004388 0.15366471
0.29940638 0.14372756 0.31374753 0.13868976 0.12744497 0.20019993 0.1328679 0.18509863
0.18088272 0.08533515 0.13675483 0.16430241 0.114652745 0.23023145 0.08998554 0.12407703

head.weight f4 [2, 512]
00000000: 4c90 6bbc 3a15 ff3c 104a 363c 67ee 333d
00000010: aa49 ea3c cc7f 30bd ece0 2d3c 479d a8bc
00000020: 363f 9a3c adc8 8fbc 499f 013d d273 a33c
00000030: 281f 89bb 0657 dc3c c44f 54bc 74b3 2abd
00000040: 5519 293d 5039 e63b f290 b23c 3ea4 e33c
00000050: 1c0a cabc 24cc 85bc daea c43c 4b87 0abd
00000060: 3f10 143d e32c 06bd c6a9 bf3c b238 bd3c
00000070: 80a3 cf39 2cce 0fbc 21f2 053d 40cc 833c
00000080: f393 103d a2d6 acbc f894 21bd 398d 293d
00000090: 5d06 093d e01a 143b 8897 dfbb 838f dabc
000000a0: e03e f63b 60e5 ef3b 85c2 2ebd fba8 0f3d
000000b0: 402e 00bb 904b 3abc c192 afbc ccb3 68bc
000000c0: 4d93 fcbc a4c2 0d3c a4c9 283c ba5f 29bd
000000d0: a697 9d3c d88c 883b 8eed 58bc 3772 1fbd
000000e0: 80f2 23bb 5517 093d 8408 d3bc b7af 1ebd
000000f0: 155d 21bd c837 5c3c b6a6 c53c e625 d93c
00000100: 0055 8e3c f9af 00bd 603a 613b 5ce0 12bc
00000110: 3ad2 f7bc 7c39 5dbc e869 25bd 26f4 963c
00000120: 9293 e53c 542a 09bc 1aa5 b73c b032 543c
00000130: 84a3 893c 181a f3bb 70c3 aebb 0cfd e3bc
00000140: 2096 04bc a345 34bd 2380 e4bc 2329 b2bc
00000150: 2a9b eb3c b948 093d 84b4 0fbc 0041 afb9
00000160: 542d 6abc 1171 34bd ed39 a2bc 0d30 95bc
00000170: 11b4 2d3d ac62 f4bc b6d9 2fbd 827b 0cbd
00000180: 4214 b83c 60ea b0bc 77e7 083d 6b20 00bd
00000190: 6c38 653c 3083 5e3b 8f4f 09bd 7056 6a3c
000001a0: 827c 15bd 8eb4 f8bc 7650 5abc 2ea2 14bd
000001b0: e0db bb3b 9116 23bd 814f afbc 8087 ac3a
000001c0: 7870 acbb 8602 f93c 9c47 02bd d040 133c
000001d0: 765e e53c 769f 85bc f038 22bc 1081 ebbb
000001e0: eec5 6bbc 90ad d53b 117f 203d 4c0e 773c
000001f0: 3d0e d7bc 4988 1e3d acc6 20bc bc14 7fbc
00000200: ddca 0e3d 3096 01bb a081 103b aab3 c3bc
00000210: 86d7 963c a002 8c3c 4d0b 113d acc4 32bd
00000220: 6627 b3bc 3e69 9c3c 67cf 133d c2f1 e33c
00000230: 3189 013d b816 aebc 9624 b03c e4f1 1e3c
00000240: e50d 173d dcdd d8bc 119f 80bc cfe4 99bc
00000250: 80d1 dbba b055 36bc 3c98 813c fdd1 2b3d
00000260: fc98 263c 7ad5 f93c 4748 e8bc 52ed 31bd
00000270: 74b4 03bd 6094 1fbb a013 cd3a d1d5 333d
00000280: 6f8e 303d 8044 f9ba fe3b a0bc 982e 8fbb
00000290: 488e 4fbc a0a5 5fbb 17a6 d1bc 2469 283c
000002a0: 51a8 02bd a484 0cbc 3945 07bd b36f 293d
000002b0: 10d0 5bbb deaf 5bbc 4d7e 173d 5aff 89bc
000002c0: aa3e cd3c 4a0b e93c 78c5 193c b8cd d23b
000002d0: c176 163d d040 68bb 706d 87bb a478 e1bc
000002e0: c728 023d cb25 85bc 55a7 acbc 6204 a03c
000002f0: 3cbf 15bc 1e75 f23c e031 2f3c 955d 27bd
00000300: 5341 013d 2032 f03a 9436 53bc 640b 2a3c
00000310: 7c0c 19bd d41b 5ebc d86e 27bc 28ae f6bc
00000320: d92e bbbc 67e6 1d3d 74e1 3fbc 2ac4 bd3c
00000330: abde 2f3d 395e 1d3d 9a28 a13c 1070 2e3c
00000340: 187d 82bb c754 aebc 48a9 11bd 5a30 33bd
00000350: f9b8 243d 452f edbc be33 993c c0d4 b33b
00000360: fa68 833c cd1d 273d f61b eb3c 8e52 af3c
00000370: f8e2 9c3b 1058 57bb 384f 0abd bff4 0f3d
00000380: 635f 033d 426e d53c ebc7 94bc b0b5 e9bb
00000390: e06a 7e3b 34e5 27bc a43b 023c 80a1 f43a
000003a0: 5c73 263c 544b e1bc 48e5 4abc 5db5 2ebd
000003b0: 000c 2dbd de2b c73c 80e9 4fbb 8f67 333d
000003c0: 4cfa 18bd a603 27bd f67f 8b3c 2065 06bc
000003d0: 8046 00bb 24df 013c 3cb1 1e3c 88de 46bc
000003e0: 737a bebc 54f1 66bc c07d 633c f011 723b
000003f0: 645a 4d3c 4417 36bc 432c 0b3d 124d cf3c
-0.014377665 0.031138051 0.011126056 0.04392853 0.028599579 -0.043090627 0.010612708 -0.020582808
0.01882897 -0.017551744 0.031646047 0.019952688 -0.0041846223 0.026896965 -0.012958471 -0.041675046
0.041283924 0.007025875 0.021797631 0.027788278 -0.024663024 -0.016332693 0.024037767 -0.03382043
0.036148306 -0.03275765 0.023396384 0.023098323 0.00039603934 -0.008777183 0.032701615 0.016088605
0.035297345 -0.021098439 -0.03944871 0.041394446 0.033453334 0.0022599027 -0.006823484 -0.02667976
0.0075148195 0.007321045 -0.042665977 0.03507326 -0.0019558817 -0.011370555 -0.021432282 -0.014203023
-0.030831957 0.008652363 0.010301981 -0.041351058 0.01923735 0.0041671805 -0.013240231 -0.038927283
-0.0025016367 0.033469517 -0.025760897 -0.038741793 -0.03939541 0.013441034 0.024127346 0.02650733
0.017374516 -0.03141782 0.003436707 -0.008964624 -0.030251611 -0.013502475 -0.040384203 0.018426966
0.028024469 -0.008371908 0.022417594 0.012951538 0.016801603 -0.007418882 -0.0053333566 -0.027830623
-0.008092433 -0.044011723 -0.027893132 -0.021748131 0.028760511 0.03351662 -0.008771066 -0.0003342703
-0.014293034 -0.04405314 -0.019803012 -0.018211389 0.042408053 -0.029832207 -0.042932235 -0.034297474
0.022470597 -0.021596134 0.033423867 -0.031280916 0.013990503 0.0033952706 -0.03352314 0.014302835
-0.036495693 -0.030359533 -0.013324847 -0.03628748 0.0057329983 -0.039816443 -0.021400215 0.0013162941
-0.0052624308 0.030396711 -0.031806573 0.0089876205 0.027999144 -0.016311388 -0.00990127 -0.0071870163
-0.014390452 0.0065209344 0.03918368 0.015079092 -0.026251907 0.03870419 -0.009812992 -0.015568908
0.034861434 -0.0019773357 0.0022049919 -0.023889381 0.018413316 0.017091095 0.035411168 -0.043644592
-0.021869373 0.019093152 0.036086466 0.02782524 0.031624977 -0.021251068 0.02150182 0.009701226
0.036878485 -0.026472978 -0.015700849 -0.018785862 -0.001677081 -0.011128828 0.015819661 0.041948307
0.01016831 0.030497301 -0.028354777 -0.043439217 -0.032154515 -0.0024349913 0.0015646107 0.043905083
0.043104585 -0.0019017607 -0.019559857 -0.004369568 -0.0126682 -0.003412582 -0.025591893 0.010278974
-0.0318988 -0.008576546 -0.033025 0.04136629 -0.0033540763 -0.013408629 0.036985684 -0.016845394
0.025054295 0.028447766 0.009385459 0.006433215 0.036734346 -0.0035439022 -0.004132919 -0.027523346
0.03177717 -0.016253373 -0.021075884 0.01953334 -0.009139832 0.029596861 0.0106930435 -0.04086073
0.03155644 0.0018325485 -0.01289143 0.010378692 -0.03736542 -0.013556439 -0.010219298 -0.030112341
-0.022849487 0.038549807 -0.011711467 0.023164827 0.042936962 0.038419936 0.01967268 0.010646835
-0.0039821975 -0.02128066 -0.03556183 -0.043747284 0.040215466 -0.028953204 0.01870143 0.0054880083
0.016041268 0.040799905 0.028699856 0.02140167 0.004787799 -0.0032858886 -0.033766955 0.035145517
0.03207339 0.026053552 -0.018161735 -0.0071322545 0.0038821027 -0.010247517 0.00794879 0.0018663853
0.01015934 -0.02750174 -0.0123837665 -0.04265343 -0.042247772 0.02431291 -0.003172487 0.043799933
-0.037348077 -0.040774964 0.01702879 -0.008202821 -0.0019573271 0.007926736 0.009685811 -0.0121380165
-0.023251748 -0.014095623 0.013884962 0.003693696 0.012533758 -0.011113945 0.03397776 0.025305305

head.bias f4 [2]
00000000: e005 f43a 0b7c 82bc
0.0018617474 -0.015928289
