CartPole/models/100000-epochs.model (torch_old, 167199 bytes, 20 tensors)

conv1.weight f4 [16, 3, 5, 5]
0	0x3c99fd60	0.018797576
1	0xbc63ef58	-0.013912044
2	0xbd5af741	-0.053458456
3	0x3da7ee88	0.08199793
4	0xbd535850	-0.051597893
5	0xbdebc63b	-0.11512419
6	0xbb39a5a0	-0.002832748
7	0x3c207680	0.009793878
8	0xbda420ce	-0.080140695
9	0x3d42ce7c	0.0475602
10	0x3b51b020	0.0031995848
11	0xbdcecf50	-0.100981355
12	0xbdc0c4bf	-0.09412526
13	0x3ccb59c0	0.02482307
14	0x3d155aac	0.036463425
15	0x3d796414	0.060886458
16	0x3cc77e88	0.024352327
17	0xbdd84bc4	-0.10561326
18	0x3d56ec60	0.05247152
19	0x3d95132c	0.07279047
20	0xbb953e40	-0.00455454
21	0xbd7ac9c8	-0.06122759
22	0x3d7bb7a0	0.061454415
23	0xbd582346	-0.052768014
24	0xbbde2a50	-0.0067799464
25	0x3d14ee3c	0.03636001
26	0x3de3c7ec	0.111221164
27	0x3d667374	0.05626245
28	0xbc93b90c	-0.018032573
29	0x3db39fa4	0.087706834
30	0x3d9a15f4	0.075237185
31	0xbd68e3ba	-0.056857802
32	0xbda4cc3d	-0.08046768
33	0x3d105f58	0.035247177
34	0x3d8f8f76	0.07009785
35	0x3dd1ea58	0.10249776
36	0xbd846113	-0.06463828
37	0x3cac0dd8	0.021002695
38	0x3d10f110	0.035386145
39	0xbdd0f287	-0.102025084
40	0xbcacbb1c	-0.021085314
41	0xbda6e74a	-0.08149584
42	0xbdb4ae5e	-0.088223204
43	0xbb9cc610	-0.004784353
44	0xbd7b5923	-0.061364304
45	0x3dd46dfc	0.1037254
46	0xbc2a5c48	-0.010397978
47	0x3d0b4c1c	0.03400813
48	0xbd2d0456	-0.042240463
49	0x3dd4ffa0	0.10400319
50	0x3ca294a8	0.019846275
51	0x3d0bf100	0.034165382
52	0xbd5b2695	-0.05350359
53	0xbce84ff4	-0.028358437
54	0x3d0a3a78	0.033747166
55	0xbcd75214	-0.026284255
56	0x3c591ec0	0.01325196
57	0x3d2eef9c	0.042708978
58	0x3d85c29e	0.06531261
59	0xbd933d38	-0.07189411
60	0x3c6d4030	0.0144806355
61	0x3db59aaa	0.088673905
62	0x3dc56f2e	0.096403465
63	0xbde2f09f	-0.11081051
64	0x3d5007b0	0.05078858
65	0x3db874c8	0.09006649
66	0x3d84e7f8	0.06489557
67	0xbd19de5c	-0.037565574
68	0xbd377244	-0.044786707
69	0x39a42800	0.0003131032
70	0xbd4fd932	-0.050744243
71	0xbd7f6fc6	-0.062362455
72	0x3d5cc778	0.053901166
73	0x3d9499fa	0.07255931
74	0xbcf6e8e4	-0.030140348
75	0xbd54e4d4	-0.05197604
76	0xbc44d7e0	-0.012014359
77	0xbde5d98c	-0.112231344
78	0x3d313f5c	0.043273315
79	0x3d692c6c	0.05692713
80	0xbdd555c5	-0.1041675
81	0x3d142a84	0.03617336
82	0xbddb1105	-0.106966056
83	0xbdcb7577	-0.09934514
84	0x3da1a9ba	0.07893701
85	0x3a4bd100	0.0007774979
86	0x3dba5968	0.09099084
87	0x3cc74c50	0.02432838
88	0x3dcf311c	0.10116789
89	0x3daba45a	0.08380957
90	0x3dd30dde	0.10305379
91	0xba226c80	-0.00061959773
92	0x3daeff9e	0.08544849
93	0xbc3ebbb8	-0.011641435
94	0xbc8fd0d8	-0.01755564
95	0x3d8dc77e	0.06922816
96	0x3dcbc2dc	0.09949276
97	0xbd7b123d	-0.06129669
98	0x3c976ea0	0.018485367
99	0x3c028c70	0.007968053
100	0x3cafb870	0.021450251
101	0x3caebb58	0.021329567
102	0x3d79789c	0.060906038
103	0xbb059480	-0.0020382702
104	0xbddc455c	-0.10755417
105	0x3d82352e	0.063577995
106	0x3d7553d4	0.059894398
107	0x3d4dbfec	0.05023186
108	0xbde0b1fa	-0.10971446
109	0x3d4bf4d0	0.04979402
110	0xbd83df9c	-0.064391345
111	0xbd27dd64	-0.04098262
112	0xbdbf793a	-0.09349294
113	0xbda9a3d7	-0.08283203
114	0x3d0a4acc	0.033762738
115	0x3b810650	0.00393752
116	0xbde8943e	-0.113564
117	0xbc2f9a80	-0.010717988
118	0xbd975268	-0.073887646
119	0x3c8e6370	0.0173814
120	0xbcb51f48	-0.022109643
121	0xbd01bfd8	-0.031677097
122	0x3c9e1898	0.019298837
123	0x3dafcbb4	0.08583775
124	0x3dafe1e2	0.085880056
125	0x3c468d60	0.012118667
126	0x3d111bcc	0.0354269
127	0xbbdc66d0	-0.0067261234
128	0xbda8ac74	-0.08236018
129	0x3c87c6d8	0.016574308
130	0xbd335e10	-0.043790877
131	0xbcac8b90	-0.021062642
132	0xbd3edcf6	-0.046597444
133	0xbc1acab8	-0.009447746
134	0x3d9efbfe	0.077629074
135	0xbccf70b4	-0.025322296
136	0xbbdbb5f0	-0.0067050382
137	0x3d38d114	0.045121267
138	0x3dcc4df0	0.09975803
139	0x3c7ec2e0	0.0155493915
140	0xbd6f1778	-0.05837199
141	0x3cfad080	0.030616999
142	0x3dad80ca	0.0847183
143	0xbc308a20	-0.010775119
144	0xb9abfe00	-0.00032804906
145	0xbbe01d40	-0.0068394244
146	0xbddc8871	-0.10768212
147	0xbc696908	-0.014246233
148	0x3d86ed8c	0.06588277
149	0x3d8295ee	0.06376253
150	0x3d9baab2	0.07600917
151	0x3de062ba	0.109563306
152	0xbd8e8df1	-0.06960667
153	0xbd85a2fc	-0.065252274
154	0x3dc24564	0.094858915
155	0x3d98eb78	0.07466787
156	0xbd9bda78	-0.07610029
157	0xbdc2a99d	-0.095050074
158	0x3d687b60	0.056758285
159	0x3d830504	0.06397441
160	0xbdca923c	-0.09891173
161	0xbdd62e13	-0.10458007
162	0x3dde678e	0.10859595
163	0xbda35689	-0.0797549
164	0x3db72862	0.08943249
165	0x3dc2c8f2	0.095109835
166	0xbc4c57d0	-0.012472108
167	0xba8bf300	-0.0010677278
168	0x3dbd27c0	0.09236097
169	0x3c54ca90	0.012987748
170	0x3b0d9160	0.0021601543
171	0x3b4645e0	0.003025405
172	0xbdaf7238	-0.085667074
173	0x3c7d8a00	0.015474796
174	0xbd9050b4	-0.07046643
175	0x3cec94e8	0.028879598
176	0xbc0fc2e8	-0.008774497
177	0x3dcda600	0.100414276
178	0xbd95ec30	-0.0732044
179	0xbdba2917	-0.090898685
180	0x3d570ea8	0.05250421
181	0xbca91f70	-0.020644873
182	0xbd941bde	-0.07231878
183	0x3d7c90cc	0.061661527
184	0x3c308940	0.01077491
185	0xbd18cc04	-0.03730394
186	0xbd12f45c	-0.03587757
187	0x3d586df4	0.052839234
188	0xbb330220	-0.00273145
189	0xbcdc1fd8	-0.026870653
190	0x3c8361e8	0.016037896
191	0x3da3b524	0.07993534
192	0x3da7afc0	0.081878185
193	0xbd687a1a	-0.05675707
194	0xbd957e44	-0.07299474
195	0x3dbd35fc	0.09238812
196	0xbd620e72	-0.055189557
197	0xbbb56c40	-0.005536586
198	0xbd3c8198	-0.046022028
199	0xbc0dbd88	-0.008651145
200	0xbde374ca	-0.1110626
201	0xbddd2cd5	-0.10799567
202	0xbc6daaa0	-0.014506012
203	0xbc1c7f50	-0.009551838
204	0xbdded291	-0.10880006
205	0x3d38d250	0.045122445
206	0x3dc64b6e	0.09682356
207	0xbdd3ba4c	-0.10338268
208	0xbb19bc20	-0.0023458079
209	0x3dae0454	0.08496919
210	0xbd90414e	-0.07043706
211	0xbc0d50b8	-0.008625202
212	0xbde55448	-0.11197716
213	0x3d4ba5c8	0.04971865
214	0x3d876902	0.066118255
215	0xbafe8980	-0.001941964
216	0x3d978652	0.073986664
217	0x3db03256	0.08603351
218	0x3dc5db72	0.096609965
219	0xbdd979db	-0.10618945
220	0xbb12f220	-0.002242215
221	0x3d359c3c	0.04433845
222	0xbd2ff396	-0.04295691
223	0xbd568734	-0.052375033
224	0x3d7a8a88	0.06116727
225	0xbdb3b645	-0.087749995
226	0xbd96d72a	-0.07365258
227	0x3d1888fc	0.037240013
228	0xbddd9d7f	-0.108210556
229	0x3d3019c8	0.042993337
230	0x3d8e1622	0.06937815
231	0x3dd1e8c2	0.10249473
232	0xbd78a731	-0.06070632
233	0xbcae6ca4	-0.021292038
234	0x3ddb02d0	0.10693896
235	0x3d94d874	0.07267848
236	0xbd43536c	-0.04768698
237	0x3d9b72c8	0.07590252
238	0xbd0e88ee	-0.034798555
239	0xbd9a1780	-0.075240135
240	0xbc8b8094	-0.017029084
241	0xbd9ebbc8	-0.0775066
242	0xbd555e28	-0.052091748
243	0xbc9ed57c	-0.019388907
244	0x3d06e46c	0.032932684
245	0xbd93a95e	-0.072100386
246	0x3cce8188	0.02520825
247	0x3d1e4ab4	0.03864546
248	0x3d3de490	0.046360552
249	0x3dbedca8	0.093194306
250	0x3d251458	0.040302604
251	0xbdc682ce	-0.09692918
252	0xbd7204ea	-0.059086718
253	0xbd5d4f39	-0.05403063
254	0x3d404468	0.046940237
255	0x3d1f7a60	0.038935065

conv1.bias f4 [16]
0	0xbd0fb91a	-0.035088636
1	0x3dbdb524	0.092630655
2	0x3b4b8160	0.0031052455
3	0xbd7dcc7d	-0.061962593
4	0x3d7b8ef8	0.061415642
5	0x3db4964a	0.08817728
6	0x3d55dd8c	0.052213237
7	0x3d995df6	0.07488625
8	0xbcf38640	-0.029727101
9	0xbd3396f0	-0.043845117
10	0xbc025358	-0.007954441
11	0x3d02d9e8	0.031946093
12	0x3d87b278	0.06625837
13	0xbb8f3c70	-0.0043712184
14	0x3dda278c	0.10652074
15	0xbd8ac208	-0.0677529

bn1.weight f4 [16]
0	0x3f800000	1.0
1	0x3f800000	1.0
2	0x3f800000	1.0
3	0x3f800000	1.0
4	0x3f800000	1.0
5	0x3f800000	1.0
6	0x3f800000	1.0
7	0x3f800000	1.0
8	0x3f800000	1.0
9	0x3f800000	1.0
10	0x3f800000	1.0
11	0x3f800000	1.0
12	0x3f800000	1.0
13	0x3f800000	1.0
14	0x3f800000	1.0
15	0x3f800000	1.0

bn1.bias f4 [16]
0	0x00000000	0.0
1	0x00000000	0.0
2	0x00000000	0.0
3	0x00000000	0.0
4	0x00000000	0.0
5	0x00000000	0.0
6	0x00000000	0.0
7	0x00000000	0.0
8	0x00000000	0.0
9	0x00000000	0.0
10	0x00000000	0.0
11	0x00000000	0.0
12	0x00000000	0.0
13	0x00000000	0.0
14	0x00000000	0.0
15	0x00000000	0.0

bn1.running_mean f4 [16]
0	0xbd0fc17e	-0.035096638
1	0x3dbdb607	0.092632346
2	0x3b4b63e4	0.0031034881
3	0xbd7dc710	-0.06195742
4	0x3d7b88bc	0.061409697
5	0x3db4acc0	0.08822012
6	0x3d55df3e	0.052214853
7	0x3d996815	0.07490555
8	0xbcf37628	-0.029719427
9	0xbd33a1fa	-0.043855645
10	0xbc0225b9	-0.007943564
11	0x3d02ceec	0.031935617
12	0x3d87b41b	0.06626149
13	0xbb8e9121	-0.004350797
14	0x3dda1d57	0.106501274
15	0xbd8ab81a	-0.06773396

bn1.running_var f4 [16]
0	0x381f5302	3.798586e-05
1	0x388b2089	6.634097e-05
2	0x37a92a02	2.0165931e-05
3	0x38a96a68	8.078368e-05
4	0x3890bc36	6.901512e-05
5	0x38b83098	8.782855e-05
6	0x3813ef80	3.5270583e-05
7	0x38369924	4.3534805e-05
8	0x39138dd5	0.00014071849
9	0x3826ca67	3.9765986e-05
10	0x394dde2b	0.00019633088
11	0x37fff27e	3.0511288e-05
12	0x3909cc01	0.00013141336
13	0x38da7923	0.000104176135
14	0x387a6c95	5.970577e-05
15	0x38aa6ba6	8.126283e-05

conv2.weight f4 [32, 16, 5, 5]
0	0xbcc7c833	-0.024387455
1	0xbd058c08	-0.032604247
2	0x3c47be60	0.012191385
3	0x3d3a0f77	0.045424905
4	0xbc05b140	-0.0081599355
5	0xbc5a5bb4	-0.013327528
6	0x3c888472	0.016664717
7	0xbb582560	-0.0032981262
8	0x3d0b1b19	0.03396139
9	0xbcf1b547	-0.029505385
10	0x3bc5f150	0.0060407296
11	0x3c70808c	0.014679085
12	0xbc8c6850	-0.017139584
13	0x3cd103c2	0.025514487
14	0xbc40efd8	-0.011775933
15	0x3975cd00	0.00023441389
16	0x3aa7a6a0	0.0012790747
17	0xbd3db17b	-0.046311837
18	0xbcc6fed0	-0.024291426
19	0x3aa83c40	0.0012835339
20	0xbcdd9607	-0.027049078
21	0x3d4b1d1d	0.04958831
22	0xbce3d1c7	-0.02780999
23	0x3cc9186e	0.024547782
24	0x3d30c2f7	0.043154683
25	0xbcb364a7	-0.02189858
26	0x3c846ba6	0.016164612
27	0x3c8b4a22	0.017003123
28	0xbc08f82c	-0.00835995
29	0x3d3bacd9	0.045819137
30	0xbd3bef90	-0.04588276
31	0x3c3e7a40	0.011625826
32	0xbcfbf463	-0.030756181
33	0xbc19d7a0	-0.009389788
34	0xbcfb4fc7	-0.03067769
35	0xbb6e28e0	-0.0036340281
36	0xbd277a45	-0.04088809
37	0x3d38a941	0.045083288
38	0x3cb558ca	0.022137064
39	0xbb3c4860	-0.0028729662
40	0x3bfe1b50	0.0077547207
41	0x3d0f5793	0.034995627
42	0xbcdfda2d	-0.027325714
43	0x3c65a2dc	0.0140158795
44	0xbce225fa	-0.027606
45	0xbcaae81d	-0.020862633
46	0xbbe825d8	-0.0070845895
47	0xbb0160b0	-0.0019741468
48	0x3d2dc8bd	0.042427767
49	0xbd2bbf88	-0.041930705
50	0xbd290c36	-0.04127141
51	0xbb828f98	-0.003984403
52	0x3d351c81	0.044216637
53	0x3d02e369	0.031955156
54	0x3d3d2735	0.04617997
55	0x3d1a9e69	0.037748728
56	0xbc2eeb48	-0.010676213
57	0x3d1ffb47	0.039057996
58	0xbc318058	-0.010833822
59	0xbba668d0	-0.0050784126
60	0x3c5f4fe4	0.013629887
61	0x39403000	0.00018328428
62	0xbd39954b	-0.045308392
63	0xbc301b20	-0.010748655
64	0xbcb995d7	-0.022654457
65	0x3d1ce4e1	0.038304213
66	0x3ae3f940	0.0017393008
67	0xbbf81918	-0.007571351
68	0xbcc62ffd	-0.024192804
69	0x3d06999b	0.032861333
70	0x3c2b3ba8	0.010451235
71	0x3d229fcd	0.03970318
72	0x3c220fb4	0.009891439
73	0x3c356114	0.0110705085
74	0x3b806118	0.0039178245
75	0x3c8f6772	0.017505381
76	0x3cf40902	0.029789452
77	0x3b411360	0.0029461011
78	0x3d162097	0.036652174
79	0x3d4b76c1	0.0496738
80	0x3d10f36d	0.0353884
81	0x3acb7fc0	0.0015525743
82	0xbbca8a40	-0.0061810315
83	0xbcdbcee7	-0.026832057
84	0xbd2c3923	-0.042046677
85	0xbcddfa5d	-0.027096922
86	0xbd0dfe12	-0.03466613
87	0x3d1c020d	0.038087893
88	0xbd271e05	-0.040800113
89	0xbcd3638d	-0.025804305
90	0x3cfe8142	0.031067494
91	0x3d3f2f29	0.046675835
92	0x3d0e42b1	0.03473157
93	0x3cde9f92	0.027175698
94	0xbd397bb0	-0.045283973
95	0x3d3683b1	0.044559184
96	0x3ce582be	0.028016444
97	0xbae15140	-0.0017190352
98	0xbd2185f2	-0.03943438
99	0x3d47320b	0.04863171
100	0x3c986602	0.018603329
101	0x3cea247a	0.028581847
102	0xbd28e9cd	-0.041238595
103	0x3c99bcd2	0.018766794
104	0xbd2467ae	-0.04013794
105	0xbc835950	-0.016033798
106	0x3beb1200	0.0071737766
107	0xbd4a1697	-0.04933795
108	0x3ba07058	0.004896205
109	0x3cb60cee	0.022222962
110	0x3c54dacc	0.012991618
111	0xbd455053	-0.048172306
112	0xbd259e55	-0.0404342
113	0xbc741460	-0.014897436
114	0x3d07acc3	0.033123743
115	0xbcf1548d	-0.029459262
116	0xbcf7eb1a	-0.030263472
117	0xbcc4ffea	-0.02404781
118	0xbd1b5d70	-0.037930906
119	0x3bcd7610	0.0062701777
120	0x3ca07562	0.019587222
121	0x3d1a9c31	0.037746612
122	0xbc30806c	-0.010772806
123	0x3afe0300	0.0019379556
124	0xbcc8ffc3	-0.02453602
125	0x3d02a6e3	0.031897437
126	0x3cb1d8f2	0.021709893
127	0xbba83bd8	-0.005134087
128	0xbc35ca08	-0.011095531
129	0xbce42c0a	-0.02785303
130	0x3d2d757f	0.04234838
131	0xbcadb65a	-0.021205116
132	0xbc91cb26	-0.017797064
133	0x3c16ab38	0.009196095
134	0x3d0b66e1	0.03403366
135	0xbc71ba60	-0.014753908
136	0xbd211f06	-0.039336227
137	0x3b23a150	0.0024967976
138	0x3cdb8f26	0.026801657
139	0x3bbd3868	0.0057745464
140	0xbc777218	-0.015102886
141	0x3d085137	0.033280578
142	0x3c7b3fe4	0.015335057
143	0x3ce2c3c2	0.027681235
144	0xbd35bc72	-0.04436917
145	0xbc35c5a8	-0.011094488
146	0x3cd02096	0.025406163
147	0xbd070e08	-0.032972366
148	0x3c51786c	0.0127850585
149	0xbc840cac	-0.016119324
150	0xbbd8b0a8	-0.006612856
151	0xbc97fef4	-0.018554188
152	0x3c4fcd2c	0.012683194
153	0x3cc4ce2e	0.024024095
154	0x3c113cc8	0.008864589
155	0x3d190173	0.037354898
156	0xbd190afa	-0.037363984
157	0x3d2dd051	0.042434994
158	0xbcbbd6f7	-0.022929652
159	0xbd198b9e	-0.037486665
160	0x3d4462f5	0.047945935
161	0xbd2d9ed3	-0.042387795
162	0xbbc0a680	-0.0058792233
163	0x3a8e4740	0.0010854974
164	0x3cb5cdbe	0.022192832
165	0xba82f1c0	-0.000999026
166	0x3d35fc79	0.04443023
167	0xbcffb6b0	-0.031215042
168	0xbce3266d	-0.027728284
169	0x3d4b99b9	0.04970715
170	0x3bf78b70	0.007554464
171	0x3cec9b96	0.028882783
172	0xbd41681f	-0.04721844
173	0xbd0b6d1e	-0.03403961
174	0x3d46849f	0.04846632
175	0xbcbf8ed0	-0.023383528
176	0x3b7d8fd0	0.0038690455
177	0xbcfdcd77	-0.030981762
178	0xbc9942e0	-0.018708646
179	0x3a8851a0	0.0010400303
180	0x3cab8192	0.020935807
181	0x3c451d08	0.012030847
182	0xbcdda6dd	-0.027057106
183	0xbb78d260	-0.003796719
184	0xbd32e4fd	-0.04367541
185	0x3b832580	0.004002273
186	0x3c9550ca	0.018227
187	0x3b8ad9a8	0.0042373724
188	0xbcadbe17	-0.021208806
189	0x39c72800	0.0003798604
190	0xbb9a7c28	-0.0047145076
191	0x3d2641f1	0.04059023
192	0x3d3e5229	0.046465073
193	0xbcca9487	-0.024729026
194	0x3cbe2f82	0.023216013
195	0x3d2a93a9	0.041644726
196	0x3d31a111	0.043366496
197	0xbbf0f740	-0.0073536932
198	0xbb604450	-0.0034220405
199	0x3c999f42	0.018752698
200	0x3c83ab4a	0.016072888
201	0x3d09e443	0.033664953
202	0x3c5ae924	0.013361249
203	0x3d2a36d5	0.0415562
204	0xbd0df6b5	-0.034659106
205	0xbb909f00	-0.0044134855
206	0xbcb40883	-0.021976715
207	0x3cc35d52	0.02384821
208	0xbc1a7674	-0.0094276555
209	0xbd19918a	-0.037492312
210	0x3d44b995	0.048028547
211	0x3c7bc99c	0.015367892
212	0x3d14728d	0.036242057
213	0xbd3c12aa	-0.045916237
214	0x3d365607	0.044515636
215	0x3d178ddd	0.037000526
216	0xbc1ef6f8	-0.009702437
217	0x3d47a22d	0.048738647
218	0xbd08d74d	-0.03340845
219	0x3c1e4cc0	0.009661853
220	0xbcbf8690	-0.023379594
221	0x3ccf157a	0.025278796
222	0x3d30fd21	0.043210153
223	0x3d44500f	0.047927912
224	0xbc9a982a	-0.018871386
225	0xbcc3819d	-0.023865515
226	0xbd399dd2	-0.045316525
227	0xbd0cbc7a	-0.034359433
228	0xbc6d03a8	-0.014466204
229	0xbc0b6fc8	-0.008510537
230	0xbd2af5d3	-0.041738342
231	0xbd3a17ca	-0.045432843
232	0x3d4534e3	0.04814614
233	0xbceb2f5a	-0.028709102
234	0xbd4bd8ff	-0.04976749
235	0xbb0d6520	-0.0021575168
236	0xbb7ed160	-0.0038882121
237	0x3c9a21aa	0.01881488
238	0xbc4cc2c0	-0.012497604
239	0xbba3f840	-0.005003959
240	0xbce852b7	-0.028359754
241	0x3d48472d	0.048896004
242	0x3d08e7cf	0.033424195
243	0xbc8cf700	-0.017207623
244	0x3d4bc383	0.049747
245	0x3c7a063c	0.015260275
246	0xbc0324d4	-0.008004386
247	0x3b128b30	0.0022360794
248	0xbcb6c65d	-0.022311384
249	0x3cd644ce	0.026155856
250	0xbbd64980	-0.0065395236
251	0x3cb3c6f2	0.02194545
252	0xbc41880c	-0.011812221
253	0x3cad519e	0.021157082
254	0x3ba9ccf0	0.005181901
255	0x3bf76650	0.0075500384

conv2.bias f4 [32]
0	0xbd2817a0	-0.041038156
1	0xbd248b73	-0.04017205
2	0xbc65f368	-0.014035083
3	0x3cfa4b9a	0.030553628
4	0xbd480175	-0.048829515
5	0xbc9fefd0	-0.019523531
6	0xbbe4beb0	-0.0069807395
7	0xbca5973d	-0.020213718
8	0x3d070b97	0.032970037
9	0xbd2a76a5	-0.041617054
10	0xbd3f1dc0	-0.04665923
11	0x3ce0afea	0.027427632
12	0xbb394820	-0.002827175
13	0x3d1f0149	0.038819585
14	0xbcc17687	-0.023616089
15	0xbc0452a8	-0.008076347
16	0x3c417f20	0.011810094
17	0x3bbf31e8	0.0058348067
18	0xbd02690a	-0.031838454
19	0x3c6022a4	0.013680134
20	0xbcf2037a	-0.029542673
21	0xbc74fec8	-0.014953323
22	0x3d444725	0.04791941
23	0x3d15ec0b	0.03660206
24	0x3d4c4539	0.049870703
25	0xbc5921f4	-0.013252724
26	0xbc695794	-0.014242072
27	0xbca1857d	-0.019716972
28	0x3cb4dec6	0.022078883
29	0xbd30eae0	-0.043192744
30	0xbc7935f4	-0.015210617
31	0xbd2f7ecb	-0.04284553

bn2.weight f4 [32]
0	0x3f800000	1.0
1	0x3f800000	1.0
2	0x3f800000	1.0
3	0x3f800000	1.0
4	0x3f800000	1.0
5	0x3f800000	1.0
6	0x3f800000	1.0
7	0x3f800000	1.0
8	0x3f800000	1.0
9	0x3f800000	1.0
10	0x3f800000	1.0
11	0x3f800000	1.0
12	0x3f800000	1.0
13	0x3f800000	1.0
14	0x3f800000	1.0
15	0x3f800000	1.0
16	0x3f800000	1.0
17	0x3f800000	1.0
18	0x3f800000	1.0
19	0x3f800000	1.0
20	0x3f800000	1.0
21	0x3f800000	1.0
22	0x3f800000	1.0
23	0x3f800000	1.0
24	0x3f800000	1.0
25	0x3f800000	1.0
26	0x3f800000	1.0
27	0x3f800000	1.0
28	0x3f800000	1.0
29	0x3f800000	1.0
30	0x3f800000	1.0
31	0x3f800000	1.0

bn2.bias f4 [32]
0	0x00000000	0.0
1	0x00000000	0.0
2	0x00000000	0.0
3	0x00000000	0.0
4	0x00000000	0.0
5	0x00000000	0.0
6	0x00000000	0.0
7	0x00000000	0.0
8	0x00000000	0.0
9	0x00000000	0.0
10	0x00000000	0.0
11	0x00000000	0.0
12	0x00000000	0.0
13	0x00000000	0.0
14	0x00000000	0.0
15	0x00000000	0.0
16	0x00000000	0.0
17	0x00000000	0.0
18	0x00000000	0.0
19	0x00000000	0.0
20	0x00000000	0.0
21	0x00000000	0.0
22	0x00000000	0.0
23	0x00000000	0.0
24	0x00000000	0.0
25	0x00000000	0.0
26	0x00000000	0.0
27	0x00000000	0.0
28	0x00000000	0.0
29	0x00000000	0.0
30	0x00000000	0.0
31	0x00000000	0.0

bn2.running_mean f4 [32]
0	0x3c30fc5c	0.010802355
1	0xbda7c025	-0.081909455
2	0x3b848d03	0.00404513
3	0x3c7acacc	0.01530714
4	0xbe1d8f27	-0.1538664
5	0xbd980150	-0.07422125
6	0xbd7ea434	-0.062168315
7	0x3d005194	0.0313278
8	0x3d97c418	0.07410449
9	0x3c3bab46	0.011454409
10	0xbbcdcd49	-0.0062805754
11	0xbdf5b2f1	-0.11997021
12	0xbbb20af7	-0.005433436
13	0x3d63b9f8	0.055597275
14	0xbcc9686c	-0.024585925
15	0xbc407498	-0.011746548
16	0x3b732bd5	0.0037104983
17	0x3d9f42ee	0.07776438
18	0xbd51f235	-0.051256377
19	0x3d670fb3	0.056411456
20	0xbd479332	-0.04872436
21	0x3c16fe10	0.009215847
22	0x3dea72a0	0.11447644
23	0x3d39dc0c	0.04537587
24	0x3dd18968	0.10231286
25	0xbdf60af4	-0.12013808
26	0xbda59de0	-0.08086753
27	0x3d4dc3ea	0.050235666
28	0xbdb4bb51	-0.0882479
29	0x3c693678	0.014234178
30	0xbdc71ae7	-0.09721928
31	0xbd09d3f2	-0.033649392

bn2.running_var f4 [32]
0	0x3da2e7dd	0.07954381
1	0x3d906a42	0.07051517
2	0x3da2b331	0.07944334
3	0x3daf4c4b	0.085594736
4	0x3de4a248	0.11163765
5	0x3dcce5e8	0.10004789
6	0x3d9ad53c	0.075602025
7	0x3d8597f8	0.06523126
8	0x3da0fd9e	0.07860874
9	0x3ddb72de	0.107152686
10	0x3d7e3d26	0.062070034
11	0x3e44f4c0	0.1923399
12	0x3d92b89b	0.07164117
13	0x3dc1bbfa	0.09459682
14	0x3d9f72d9	0.07785577
15	0x3dc1c6ef	0.09461772
16	0x3d61b448	0.05510357
17	0x3da7b776	0.08189289
18	0x3d6732ce	0.056444936
19	0x3ddb3c51	0.10704864
20	0x3d7f0570	0.062261045
21	0x3dc362ef	0.095403545
22	0x3dcde398	0.10053176
23	0x3d74d2a2	0.059771188
24	0x3def741b	0.11692067
25	0x3de48947	0.11158996
26	0x3d9db5ba	0.07700677
27	0x3dd34a08	0.10316855
28	0x3de3a4b3	0.11115398
29	0x3e00ff23	0.12597327
30	0x3d97de27	0.07415419
31	0x3d88a485	0.066720046

conv3.weight f4 [32, 32, 5, 5]
0	0x3d0384ef	0.032109197
1	0xbc7fb4b2	-0.015607046
2	0x3cc31bb4	0.02381692
3	0xbca99240	-0.02069962
4	0x3c392dfc	0.011302467
5	0xbb460d60	-0.0030220374
6	0x3d07b0e3	0.033127677
7	0xbc3207d0	-0.01086612
8	0x3ca9ee6a	0.020743567
9	0xbc99a467	-0.018755151
10	0x3d0bca91	0.03412873
11	0x3cd2fe0a	0.0257559
12	0x3adcffa0	0.001686085
13	0xbb7e4b40	-0.0038802177
14	0x3cd8e27e	0.026475187
15	0xbc688074	-0.014190782
16	0x3c4dcac8	0.012560554
17	0x3c834470	0.016023844
18	0xbb9728a0	-0.004612997
19	0x3cb945b4	0.022616245
20	0xbcc4fd1c	-0.024046473
21	0xbc005cbe	-0.007834611
22	0xbce0e292	-0.027451787
23	0x3b3c8350	0.0028764792
24	0xb9b0d200	-0.00033725798
25	0xbd07049e	-0.032963388
26	0x3c82dcce	0.015974429
27	0xbc2ac4f8	-0.010422938
28	0xbc88572a	-0.016643126
29	0xbb560cb0	-0.003266137
30	0x3be6e900	0.0070468187
31	0x3d09b7df	0.03362262
32	0x3c9568ea	0.018238503
33	0xbc7632c4	-0.015026752
34	0xbd00bf14	-0.031432226
35	0xbce764ba	-0.028246272
36	0x3b331900	0.0027328134
37	0xbb47e490	-0.0030501224
38	0x3c5b4e80	0.013385415
39	0x3bdb3b98	0.0066904537
40	0xbc2349ca	-0.009966323
41	0xbcab1dc1	-0.020888211
42	0x3d0d5efb	0.03451441
43	0x3ca81b9c	0.020520978
44	0x3c882830	0.016620725
45	0xbcb4f91c	-0.02209144
46	0x3d0099af	0.031396564
47	0x3c8779ae	0.016537514
48	0x3b003fa0	0.0019569173
49	0x3b747c60	0.0037305579
50	0x3c332ffc	0.010936733
51	0x3c86b9ba	0.016445983
52	0xbd0f2743	-0.034949552
53	0x3c224eb0	0.009906456
54	0x3c9031de	0.017601904
55	0xbc52d3ec	-0.012867909
56	0x3ae51280	0.0017476827
57	0x3c9b9ef4	0.018996693
58	0x3a03abc0	0.0005022846
59	0x3d0656e5	0.032797713
60	0xbc8aa2e0	-0.016923368
61	0x3c6c9a58	0.014441095
62	0x3d0ae283	0.033907425
63	0x3b5fb430	0.00341345
64	0x3d0d60cd	0.034516145
65	0x3ce6a44e	0.028154518
66	0x3d044be5	0.03229894
67	0xbc481790	-0.012212649
68	0xbce1c3da	-0.02755921
69	0xbbddbba4	-0.0067667533
70	0xbc20707e	-0.009792445
71	0xbd020a21	-0.03174794
72	0x3cadbd28	0.02120836
73	0x3cdbcb80	0.026830435
74	0x3b2b1c30	0.002610933
75	0x3d0d1a21	0.034448747
76	0xbc943169	-0.018089967
77	0xbd10015b	-0.035157543
78	0x3c16bc9c	0.009200241
79	0x3c1d36dc	0.009595599
80	0xbcc24bd8	-0.023717806
81	0x3c8c866e	0.017153945
82	0xbcbf5f59	-0.023360895
83	0x3ccba294	0.024857797
84	0x3d058b81	0.032603744
85	0xbc59c0ba	-0.0132905785
86	0xbc60c804	-0.013719562
87	0x3c15a27c	0.009132978
88	0x3bee8c40	0.0072799027
89	0xbcfc9c84	-0.030836351
90	0xbce96c43	-0.028494006
91	0xbc0f0c16	-0.008730909
92	0x3d066295	0.03280886
93	0x3b658710	0.003502313
94	0xbd10445c	-0.035221443
95	0x3a29aac0	0.0006472282
96	0x3c4bca88	0.012438424
97	0xba35cdc0	-0.0006935261
98	0x3b3c9300	0.0028774142
99	0x3cefb41e	0.029260691
100	0xbb9856d0	-0.0046490207
101	0x3c12b540	0.008954346
102	0xbc2a83aa	-0.010407368
103	0x3c985c2e	0.018598642
104	0x3bded4f8	0.00680029
105	0xbc519e9e	-0.012794165
106	0xbb7bb9f0	-0.0038410388
107	0xbcfeda51	-0.03110996
108	0xbd0e5218	-0.03474626
109	0x3cdf2906	0.027241241
110	0xbc58a57c	-0.013223048
111	0xbced2378	-0.028947577
112	0xbd0a4c8d	-0.03376441
113	0xbce47806	-0.027889263
114	0x3c8e76de	0.017390665
115	0x3c90e956	0.017689388
116	0x3ba9c068	0.0051804073
117	0x3c271878	0.010198705
118	0x3ce30a02	0.027714733
119	0xbc2269d4	-0.009912927
120	0xbc074dce	-0.008258296
121	0xbd0c7747	-0.03429344
122	0xbc9c115d	-0.019051248
123	0xbd0f34e9	-0.03496257
124	0xbcabbde3	-0.020964568
125	0xbcb21015	-0.021736184
126	0xbd0e0db2	-0.03468103
127	0xbccf2982	-0.025288347
128	0x3cd4cee0	0.025977552
129	0x3c826398	0.01591663
130	0xbccd5630	-0.025065511
131	0xbc55898c	-0.013033282
132	0xbceed667	-0.02915497
133	0xbced32c8	-0.028954878
134	0xbcb983f6	-0.022645932
135	0xbb0cb670	-0.0021471046
136	0xbcb4b3a0	-0.022058308
137	0xbc3ec1c0	-0.011642873
138	0x3c0225f0	0.007943615
139	0xbc075a1c	-0.00826123
140	0xbb2f7890	-0.0026774742
141	0x3aa437a0	0.0012528785
142	0xbc49635e	-0.012291757
143	0x3bdcd0f0	0.0067387745
144	0xbc1be53c	-0.009515103
145	0x3c7d7544	0.015469853
146	0xb91fe200	-0.00015247613
147	0x3cd431b0	0.0259026
148	0xbc8e9e49	-0.01740946
149	0x3c982056	0.018570106
150	0x3c459ce4	0.012061331
151	0xbcfd1c92	-0.030897412
152	0xbd00ef12	-0.031477995
153	0xbc9788b4	-0.018497802
154	0x3c892678	0.016741976
155	0xbbe489a0	-0.006974414
156	0x3c1e5870	0.00966464
157	0x3bc8b498	0.006125044
158	0xbc11d62e	-0.008901162
159	0xbc9ebf05	-0.019378195
160	0xbcf17212	-0.029473338
161	0x3bb824c0	0.0056196153
162	0x3c2d173c	0.010564622
163	0xbcb79473	-0.022409653
164	0x3c7d6fd8	0.01546856
165	0xbafea6e0	-0.0019428395
166	0x3cbe3cfe	0.023222443
167	0xbd100ed9	-0.03517041
168	0xbc9df8e8	-0.019283727
169	0x3ca92582	0.020647768
170	0x3b25abf0	0.0025279485
171	0xbcec49c8	-0.028843775
172	0x3c05e75c	0.008172836
173	0xbc272df0	-0.010203823
174	0xbcfb9a0f	-0.03071311
175	0xbc489dd6	-0.012244662
176	0x3ce24aaa	0.027623493
177	0xbcbc9a18	-0.023022696
178	0xbbbad9a0	-0.0057022125
179	0xbc122f9c	-0.008922484
180	0x3cc2334e	0.023706105
181	0x3bc50130	0.0060121045
182	0xbca5e6ea	-0.02025171
183	0xbb020ce0	-0.00198441
184	0x3cac17b2	0.021007393
185	0xbcbeea9f	-0.023305235
186	0x3c5bb428	0.013409652
187	0xbbc81570	-0.006106071
188	0x3bc996c8	0.0061520077
189	0x3cc5b30e	0.024133231
190	0x3a02f900	0.00049962103
191	0xbce4433c	-0.027864091
192	0x3c907ac8	0.017636672
193	0x3cb64d5e	0.022253688
194	0x3ac4c880	0.0015013367
195	0x3c8ac382	0.016938929
196	0xbc456540	-0.012048066
197	0x3d09a31d	0.033602823
198	0xbc39dc50	-0.0113440305
199	0xbbc9ba3c	-0.006156234
200	0x3bc307e8	0.00595187
201	0x3c551150	0.013004616
202	0xbd093b63	-0.0335039
203	0x3c8fe414	0.01756481
204	0xbc5bb7bc	-0.013410505
205	0x3bbfc038	0.0058517717
206	0xbccf1c44	-0.025282033
207	0xbc9f843e	-0.019472238
208	0xbbd4d010	-0.0064945295
209	0x3be3b920	0.006949559
210	0x3ccab3ae	0.024743881
211	0xbc122810	-0.008920684
212	0x3cec564a	0.02884974
213	0xbc5b8dd2	-0.013400512
214	0xbc5beb08	-0.013422735
215	0xbc2054b8	-0.0097858235
216	0x3c220680	0.009889245
217	0x3ca1f752	0.019771252
218	0x3cba7322	0.022759978
219	0x3c29d760	0.010366291
220	0x3c3f372c	0.011670869
221	0xbbb6453c	-0.0055624526
222	0x3bacdb38	0.0052751563
223	0xbd0bcb1e	-0.034129255
224	0x3cb94cc0	0.022619605
225	0xbd025019	-0.03181467
226	0xbc5b1c78	-0.013373487
227	0x3c7ebe14	0.015548248
228	0xb9181500	-0.00014503673
229	0x3cedde5a	0.02903669
230	0x3be52248	0.006992612
231	0x3c1a8390	0.009430781
232	0xbd04a724	-0.03238596
233	0xbb8eb7a4	-0.0043553878
234	0x3b594ce0	0.0033157393
235	0xbc2f0d44	-0.010684315
236	0xbc7ff4e6	-0.015622353
237	0x3cf568ce	0.029957201
238	0xbcb8991b	-0.022533944
239	0x3b858ae8	0.004075397
240	0xbcc3c5a0	-0.023897946
241	0x3c9f1ba0	0.019422352
242	0xbcb7cba8	-0.022435978
243	0xbc7b47fc	-0.015336987
244	0xbb731660	-0.0037092194
245	0x3c99325a	0.018700767
246	0xbd089f78	-0.033355206
247	0x3d0bbe3f	0.03411698
248	0xbc3ed5ac	-0.011647623
249	0xbcd74248	-0.026276723
250	0x3cb0fe98	0.021605775
251	0x3d00a68d	0.031408835
252	0xbb6d1e80	-0.003618151
253	0xbb91f5b0	-0.004454337
254	0xbb3c2660	-0.0028709397
255	0xbd0f3d37	-0.03497049

conv3.bias f4 [32]
0	0x3b7cf590	0.0038598515
1	0xbc83ee6b	-0.016104897
2	0xbc94e923	-0.018177575
3	0xba01eac0	-0.000495594
4	0x3cceed18	0.02525954
5	0x3d05174f	0.032492932
6	0xbcbd03fe	-0.023073193
7	0xbc345ec0	-0.011008918
8	0x3cd20efa	0.025641907
9	0xbc929980	-0.01789546
10	0xbbe703a8	-0.0070499964
11	0x3c3d9ddc	0.011573281
12	0xbc2a018e	-0.010376347
13	0xbcfcda5f	-0.030865846
14	0x3cdbcb76	0.026830416
15	0xbd04075b	-0.032233577
16	0xbc73dd42	-0.014884295
17	0x396f8700	0.00022843108
18	0x3c91ff3a	0.017821897
19	0xbcdb07ae	-0.02673706
20	0xbcba0870	-0.022709101
21	0xbc80dcb1	-0.015730234
22	0x3c9f1f4e	0.019424107
23	0xbcda4c3c	-0.02664768
24	0x3cd91e70	0.026503772
25	0x3d0a340d	0.033741046
26	0xbcca7bba	-0.0247172
27	0xbd0dc683	-0.034613144
28	0xbcd78cbc	-0.026312225
29	0x3c35a2f4	0.011086214
30	0x3cfbe092	0.030746732
31	0x3c85aaf6	0.016316872

bn3.weight f4 [32]
0	0x3f800000	1.0
1	0x3f800000	1.0
2	0x3f800000	1.0
3	0x3f800000	1.0
4	0x3f800000	1.0
5	0x3f800000	1.0
6	0x3f800000	1.0
7	0x3f800000	1.0
8	0x3f800000	1.0
9	0x3f800000	1.0
10	0x3f800000	1.0
11	0x3f800000	1.0
12	0x3f800000	1.0
13	0x3f800000	1.0
14	0x3f800000	1.0
15	0x3f800000	1.0
16	0x3f800000	1.0
17	0x3f800000	1.0
18	0x3f800000	1.0
19	0x3f800000	1.0
20	0x3f800000	1.0
21	0x3f800000	1.0
22	0x3f800000	1.0
23	0x3f800000	1.0
24	0x3f800000	1.0
25	0x3f800000	1.0
26	0x3f800000	1.0
27	0x3f800000	1.0
28	0x3f800000	1.0
29	0x3f800000	1.0
30	0x3f800000	1.0
31	0x3f800000	1.0

bn3.bias f4 [32]
0	0x00000000	0.0
1	0x00000000	0.0
2	0x00000000	0.0
3	0x00000000	0.0
4	0x00000000	0.0
5	0x00000000	0.0
6	0x00000000	0.0
7	0x00000000	0.0
8	0x00000000	0.0
9	0x00000000	0.0
10	0x00000000	0.0
11	0x00000000	0.0
12	0x00000000	0.0
13	0x00000000	0.0
14	0x00000000	0.0
15	0x00000000	0.0
16	0x00000000	0.0
17	0x00000000	0.0
18	0x00000000	0.0
19	0x00000000	0.0
20	0x00000000	0.0
21	0x00000000	0.0
22	0x00000000	0.0
23	0x00000000	0.0
24	0x00000000	0.0
25	0x00000000	0.0
26	0x00000000	0.0
27	0x00000000	0.0
28	0x00000000	0.0
29	0x00000000	0.0
30	0x00000000	0.0
31	0x00000000	0.0

bn3.running_mean f4 [32]
0	0xbe2990ec	-0.1655919
1	0x3d82edb0	0.063929915
2	0xbe339835	-0.17538531
3	0x3e29318b	0.16522805
4	0xbb593355	-0.0033142169
5	0x3e1d5cb8	0.153674
6	0xbcdc0707	-0.02685882
7	0xbddf8d20	-0.10915589
8	0x3e254467	0.16139375
9	0xbc845518	-0.016153857
10	0x3c1d1c7e	0.009589313
11	0x3e759924	0.239842
12	0x3cb20475	0.02173064
13	0x3db808bd	0.08986042
14	0xbe80ef9d	-0.2518281
15	0x3e161780	0.14657402
16	0x3d46a0fd	0.048493374
17	0x3d96b111	0.073579915
18	0x3daa69dd	0.08320973
19	0x3db6635c	0.0890567
20	0xbe1bb705	-0.15206535
21	0xbe1ba5c0	-0.15199947
22	0xbe43178b	-0.1905195
23	0x3e39accb	0.18132322
24	0x3e8f3c7b	0.2797583
25	0x3e035dd0	0.12828755
26	0x3d4b074c	0.049567506
27	0x3da5a663	0.080883764
28	0xbd760f37	-0.060073104
29	0x3d77e892	0.06052453
30	0x3da43ad3	0.08019032
31	0x3ea55333	0.32290038

bn3.running_var f4 [32]
0	0x3e18a071	0.14904954
1	0x3e55454d	0.20827217
2	0x3e182ecf	0.14861606
3	0x3e58c21f	0.21167801
4	0x3e27ccd4	0.1638673
5	0x3dc795ba	0.09745355
6	0x3e18efb0	0.14935184
7	0x3dc81af5	0.09770767
8	0x3ddc2135	0.10748521
9	0x3e6d9e38	0.23204887
10	0x3def4d48	0.11684662
11	0x3e5a85ee	0.21340153
12	0x3da9f388	0.08298403
13	0x3e174431	0.14772107
14	0x3e2887cd	0.16458054
15	0x3e847132	0.2586761
16	0x3e5ac5f6	0.21364579
17	0x3de218cf	0.11039888
18	0x3dc979ed	0.098377086
19	0x3e186130	0.14880824
20	0x3e1b2844	0.15152079
21	0x3e0df463	0.13862757
22	0x3e0b6082	0.13611034
23	0x3e146168	0.14490283
24	0x3e93d7c0	0.28875542
25	0x3e183819	0.1486515
26	0x3e1c3ee4	0.15258366
27	0x3e147373	0.14497165
28	0x3e11f01e	0.14251754
29	0x3dd288fb	0.10280033
30	0x3e0d36ee	0.13790485
31	0x3e19fbfb	0.15037529

head.weight f4 [2, 512]
0	0x3caec4f2	0.021334145
1	0x3ccf9116	0.025337737
2	0x3d2f955f	0.04286706
3	0x3c8a171e	0.016856726
4	0x3d13b3af	0.03606003
5	0x3c5f2c7c	0.013621446
6	0xbd042554	-0.03226216
7	0x3c1fbb54	0.009749252
8	0x3bd68138	0.006546166
9	0x3cca71ae	0.02471241
10	0xbbcc5c88	-0.0062366165
11	0x3cf3a43e	0.029741403
12	0xbcf00888	-0.029300943
13	0x3c985a7e	0.018597838
14	0x3ce1300e	0.027488735
15	0xbcec7e3d	-0.028868789
16	0x3d04ea13	0.032449793
17	0x3d19ccef	0.037548956
18	0xbcee13a2	-0.029062096
19	0xbbf0cb20	-0.007348433
20	0xbcf8ac2c	-0.030355535
21	0xbc879d73	-0.01655457
22	0xbc559338	-0.013035588
23	0xbd2760a7	-0.04086366
24	0x3cd7d85e	0.02634829
25	0xbc8890f6	-0.016670685
26	0xbd09c337	-0.033633437
27	0x3c1c01a4	0.0095218755
28	0xbd200b18	-0.03907308
29	0xbcaebeae	-0.021331158
30	0xba8da500	-0.001080662
31	0x3d24a853	0.04019959
32	0x3d0fa545	0.035069723
33	0xbd34a5b3	-0.044103336
34	0x39af1900	0.00033397228
35	0x3d086509	0.03329948
36	0xbb855d80	-0.004069984
37	0x3cbf5c8a	0.023359556
38	0x3ca1d12e	0.019753065
39	0xbcd0938b	-0.025460979
40	0xbc7fbc40	-0.015608847
41	0xbc92f18d	-0.017937446
42	0xbcc0f648	-0.023554936
43	0x3cb4f2ea	0.022088487
44	0x3c67ada0	0.0141405165
45	0x3a6ae300	0.0008960217
46	0xbd201df9	-0.039091084
47	0xbb92d048	-0.0044803955
48	0xbc0b0284	-0.0084844865
49	0xbc31d06c	-0.010852914
50	0xbc083a0c	-0.008314621
51	0x3d1f9dc7	0.038968828
52	0xbd20445e	-0.0391277
53	0x3c45f05c	0.012081232
54	0x3cef53ca	0.029214758
55	0xbad1fa40	-0.0016020015
56	0xbd2c8ab2	-0.042124458
57	0xbb7991c0	-0.0038081259
58	0x3cfae5ce	0.030627158
59	0xbc3556bc	-0.011068042
60	0xbca2f0a0	-0.01989013
61	0x3d0a375f	0.033744212
62	0xbcb75e60	-0.022383869
63	0xbc7790ce	-0.015110208
64	0x3c4ffb48	0.012694187
65	0x3d266a15	0.04062851
66	0xbd264693	-0.04059465
67	0xbd1bad4b	-0.038007062
68	0x3cafb972	0.021450732
69	0x3b2d8220	0.0026475266
70	0xbbbe5328	-0.005808253
71	0x3cd80726	0.026370596
72	0xbcf3d75a	-0.029765774
73	0x3cf0b0a2	0.0293811
74	0x3d32c7eb	0.043647688
75	0x3bea5498	0.0071511976
76	0xbd3365e5	-0.043798346
77	0x3d006655	0.03134759
78	0xbc74ae1a	-0.014934087
79	0xbc9243fa	-0.01785468
80	0x3c401340	0.01172334
81	0xbc0f5cec	-0.008750182
82	0xbc6f8fdc	-0.014621701
83	0xbca619e0	-0.02027601
84	0xb8fc5e00	-0.00012033805
85	0x3c64f21c	0.013973739
86	0xbd1c1e26	-0.03811469
87	0x3cfa3006	0.030540477
88	0xbc9aa099	-0.018875407
89	0x3c20063c	0.009767111
90	0x3cefaf7e	0.029258486
91	0x3c941752	0.018077526
92	0xbd0dd29d	-0.034624685
93	0x3cb41ca6	0.021986317
94	0x3cb3f84a	0.02196898
95	0xbd312459	-0.043247554
96	0x3c5d1eb4	0.01349609
97	0xbc2dab5c	-0.010599937
98	0xbcc5c17a	-0.024140108
99	0xbbeb3ae8	-0.007178653
100	0xbca89780	-0.020580053
101	0x3c22c480	0.009934545
102	0xbcde844a	-0.02716269
103	0xbcdce863	-0.02696628
104	0xbd3054cc	-0.04304962
105	0x3d04f0a3	0.03245605
106	0xbd0f20c0	-0.034943342
107	0x3c541d38	0.012946419
108	0x3d163df1	0.036680166
109	0x3beea318	0.007282626
110	0x3bd04088	0.006355349
111	0xbc92858a	-0.017885942
112	0x3d227385	0.03966095
113	0xbc71024a	-0.014710018
114	0x3baa33e0	0.0051941723
115	0x3c64e058	0.013969503
116	0xbc7638c2	-0.015028181
117	0x3ca4de7e	0.020125624
118	0xbd067ac8	-0.032831937
119	0xbb5075b0	-0.0031808428
120	0x3ca7b116	0.020470183
121	0xbca4fb71	-0.020139428
122	0xbcb80ebf	-0.022467969
123	0xbc3f03b4	-0.011658598
124	0xbbe376a0	-0.0069416314
125	0xbd0eb16b	-0.034837168
126	0xba5a7800	-0.00083339214
127	0xbd19b481	-0.037525658
128	0xbcb7ea2f	-0.022450535
129	0xbd11e6e2	-0.035620578
130	0xbd085222	-0.033281453
131	0x3d09c63b	0.033636313
132	0x3d0fc979	0.03510425
133	0xbcb58a62	-0.022160713
134	0x3d28a813	0.041175913
135	0xbb5fa5c0	-0.0034125894
136	0xbc4a0b88	-0.012331851
137	0x3d343f83	0.044005882
138	0x3d164e33	0.03669567
139	0x3cd9eb72	0.026601527
140	0xbc2d049c	-0.010560181
141	0x3ba1dcd0	0.004939653
142	0xbb51b180	-0.0031996667
143	0x3d0904f9	0.033452008
144	0x3d02d503	0.031941425
145	0xbc767aa0	-0.0150438845
146	0x3d1dc077	0.038513627
147	0x3d107cd9	0.035275314
148	0x3ca98212	0.020691905
149	0xbcd2b987	-0.025723232
150	0x3d0b2795	0.033973295
151	0xbc8996cd	-0.01679554
152	0xbc43e16c	-0.0119556
153	0xbc87bdbf	-0.01656997
154	0xbd28049a	-0.041020013
155	0x3cbb314e	0.022850659
156	0x3b8bd348	0.00426713
157	0xbd0a0e19	-0.03370485
158	0xbccb24a2	-0.024797741
159	0xbced0dd6	-0.028937262
160	0xbcbe7bc9	-0.023252385
161	0xbcd55975	-0.026043633
162	0xbc77153e	-0.015080748
163	0xbd1e44ac	-0.03863971
164	0xbd1cf74e	-0.038321786
165	0xbc94894c	-0.018131875
166	0xbcffc241	-0.031220557
167	0xbc8b8eb1	-0.017035814
168	0x3c5b1848	0.013372488
169	0xbd048c08	-0.032360107
170	0xbc5c2c62	-0.013438316
171	0x3c826a08	0.0159197
172	0x3c9221e8	0.017838433
173	0xbd2f1072	-0.042740293
174	0x3d1c0eed	0.03810017
175	0x3ce5e322	0.028062407
176	0xbb91bbe0	-0.0044474453
177	0xbc085e08	-0.0083232
178	0xbc43e128	-0.011955537
179	0x3c7bf600	0.015378475
180	0xbc40b88c	-0.011762749
181	0x3c8e0ed2	0.017341051
182	0xbcf9279b	-0.030414393
183	0x3d17a3c7	0.037021425
184	0xbae79f00	-0.0017671287
185	0xbd25a4bb	-0.040440302
186	0x3d1a502d	0.037674118
187	0xbd0fb3a5	-0.03508343
188	0xbd124bca	-0.03571681
189	0xbbbb7dd8	-0.005721789
190	0xbd0ddde2	-0.034635432
191	0xbd280d67	-0.041028406
192	0x3d03825f	0.032106753
193	0x3d1686a9	0.036749516
194	0xbc20e268	-0.009819604
195	0x3c49a528	0.012307443
196	0xbd2cf754	-0.042228058
197	0x3cd3132a	0.025765974
198	0xbc372dc0	-0.011180341
199	0xbce7a4e4	-0.028276868
200	0xbd03214e	-0.032014184
201	0xbd26e5b0	-0.04074639
202	0x3d2edf57	0.042693462
203	0x3cef2c36	0.029195886
204	0x3a819f40	0.0009889379
205	0xbcb24f0e	-0.021766212
206	0xbcc04f94	-0.023475446
207	0xbc246024	-0.010032687
208	0x3c15ad04	0.009135488
209	0x3cac924e	0.021065857
210	0x3c7dbc3c	0.015486773
211	0xbc930a3e	-0.01794922
212	0xbaac3960	-0.0013139658
213	0xbd223f46	-0.039611124
214	0x3cc38312	0.02386621
215	0x3c894324	0.016755648
216	0xbd0a93d7	-0.033832397
217	0x3b771540	0.0037701875
218	0xbce502ff	-0.02795553
219	0x3ca74b1a	0.020421553
220	0x3cd2d47e	0.02573609
221	0xbcf7ddda	-0.030257154
222	0x3cd21896	0.02564649
223	0xbcd05595	-0.025431434
224	0x3c78d3e4	0.015187237
225	0x3ce8e006	0.028427135
226	0x3d31f229	0.043443833
227	0x3bbc96e8	0.005755294
228	0x3ccbb9a2	0.02486879
229	0xbb28e720	-0.0025772527
230	0x3c15f474	0.00915252
231	0x3c83b9a0	0.016079724
232	0x3c844380	0.016145468
233	0xbd11cd2c	-0.035596058
234	0x3d0b5f4d	0.034026433
235	0x3c9ac472	0.0188925
236	0xbd24b05d	-0.040207256
237	0x3cebf252	0.02880207
238	0x3cc8c892	0.024509702
239	0xbc0c4408	-0.008561142
240	0x3bf04210	0.007332094
241	0xbc670674	-0.01410066
242	0xbd0107c2	-0.03150154
243	0xbc567672	-0.013089763
244	0x3ca2c452	0.019869003
245	0xbc4ca82c	-0.012491267
246	0xbccea9aa	-0.025227387
247	0xbccfb6f3	-0.025355792
248	0xbcfef723	-0.031123703
249	0x3bfa38c0	0.0076361597
250	0x3d1afea7	0.03784051
251	0xbc873042	-0.016502503
252	0x3cc5d19a	0.024147797
253	0x3d18eed7	0.03733715
254	0xbc770122	-0.015075954
255	0x3ce11ba6	0.027479004

head.bias f4 [2]
0	0x3c575f10	0.013145223
1	0x3a813c40	0.0009859875
