CartPole/models/CartPole_100000.model (torch_old, 167444 bytes, 20 tensors)

conv1.weight f4 [16, 3, 5, 5]
00000000: 8300 82bd 602a 9bbb 00f7 a03d 861f cfbd
00000010: 88e0 c03d 9a8c e83d 4248 1bbd 3d52 67bd
00000020: 08b9 23bd 741a 973d 02d8 86bd b82b d4bd
00000030: 6ba6 66bd 9093 24bc 2c7c 84bd 8c62 8dbd
00000040: 10fd d13c 3913 b7bd e02a 02bc 461c 52bd
00000050: 70be a13c 583f 7bbd 7413 b13d 8ed4 8fbd
00000060: 802f 3a3d 5070 4b3c 50ba 483c 48c1 b23d
00000070: 12a2 8a3d 2e7c b1bd 84e0 103d 50ab 6a3c
00000080: 3226 8e3d 2004 d1bb 723f 09bd 8c93 6c3d
00000090: 061e c73d 805c 773c a595 dbbd 6e81 e13d
000000a0: 7222 18bd 82ac d03d 7e26 43bd 1a03 a93d
000000b0: 0883 113d 089f dd3d e89c a03c c0da 98bc
000000c0: d058 df3d 00a6 c6ba 8c0e 1d3d 548a 4ebd
000000d0: 5054 5c3c ff41 a5bd eb03 e5bd 279d 70bd
000000e0: 6809 31bd ccef 8dbc cc7c dc3d fcdd 0c3d
000000f0: 9931 e4bd ba4d c5bd c648 d23d 96bc 9b3d
00000100: 00ce 513b 2d38 ebbd b0c2 a2bd cacd aabd
00000110: 8092 b83c 5431 46bd c642 af3d fc00 dfbd
00000120: 9c55 b6bc 50ac 7cbc 42b3 a0bd 0ce8 133d
00000130: 4f04 93bd b9a1 d6bd 8ab4 963d 4e3d cb3d
00000140: 8850 05bd a013 4fbb b879 8f3d a01a d63c
00000150: 8c82 ddbd 165c acbd 76c2 48bd 50b0 e13c
00000160: 52d3 823d fc53 cfbc 642b 543d f857 61bc
00000170: 58f5 87bd b225 983d b87d 7b3d 50c3 6a3c
00000180: 49fb 6cbd 1a4f b63d 0000 36b6 2071 d53c
00000190: aee8 27bd 17d0 b9bd 301b babb 43e3 6abd
000001a0: 60e0 383c 6424 483d 36eb d33d 4878 763d
000001b0: 804a 373a 06e4 d0bd 3081 8e3d bf6f b1bd
000001c0: d099 503c f0da c5bc 9c01 26bd 3c19 8dbd
000001d0: e0ad de3d bc71 743d 5c12 223d 60d5 2f3c
000001e0: 681f 123d 6a95 cb3d 91e5 e6bd c0a0 553d
000001f0: f432 4e3d 38b2 b73c b60f a8bd 3e09 bf3d
00000200: 9c4f a93d 8c1e 3d3d d0b3 66bd 8450 e4bd
00000210: 987b 3fbd b0ae 17bc d0ae d4bc c845 703d
00000220: 60a9 973d 1ec7 80bd 88ec 763d 7879 e5bd
00000230: e86c 0d3d 46c9 e13d 40ff 16bb 70d1 503c
00000240: 00b4 47b9 d8d1 82bc 004b 1e3b c85c c23c
00000250: 92f2 dcbd 88a3 9c3d 303f 83bc 740e be3d
00000260: 8c04 e1bc a6d6 c4bd 50b1 4f3d 28f0 bdbd
00000270: e802 0e3d b0ac 803d f0ca b53d 2dd8 cebd
00000280: cad0 4fbd 784e 2dbc e0d0 e43c 7044 f33b
00000290: d186 cbbd 1a80 db3d 0a93 ba3d b0f0 c83c
000002a0: 0033 793a 8e3e cc3d 2c2e 753d 4044 3abd
000002b0: c72e 70bd 140b ae3d 607b 943d 5ca6 6d3d
000002c0: 4aec ddbd 378c 5ebd d8a5 8c3c b054 223c
000002d0: fe44 9d3d b41b 893d 01cf 7bbd 98a2 db3d
000002e0: 01e2 8ebd 2cad 233d 801e 323a 30f1 4f3d
000002f0: d6e6 49bd f2d8 ce3d e885 243d 000b bc39
00000300: c8ad d73d b095 38bc 84cb ebbd a891 e6bc
00000310: 7ca4 a1bc 9855 343d e2dc be3d 40b8 123d
00000320: 803c deba 58fd 8b3d ccfc 9b3d b021 88bb
00000330: b01e 103c 7182 b5bd 38d5 aa3d b45a bcbc
00000340: 2a16 26bd 48fb 7abc 40c7 1abc fe57 9bbd
00000350: aa37 9b3d 3819 c4bd 5aa2 b63d 5065 ea3d
00000360: 5438 473d 34a7 323d 803c 4a3d 7682 3abd
00000370: c853 d13c 3809 dabc 2a62 74bd 3cda 193d
00000380: f29a aa3d d25c c43d 7ca1 f8bc 4cb9 683d
00000390: 7c10 8bbd 00e0 35bc edde 5dbd 5950 d3bd
000003a0: 50c9 603d 906c 443d 1cd8 cd3d 6462 c2bd
000003b0: ae0b 9e3d 864f a9bd 7485 11bd 480e f53c
000003c0: 3418 57bd 2080 c53c 27ee eabd 48d6 80bd
000003d0: 16e5 6cbd 502b 483c ecce 5c3d 3c31 eabd
000003e0: 3019 40bc 7cf9 5b3d 2a61 d43d b068 48bd
000003f0: 58af 95bd c8dd 14bc 2034 73bc 79b9 cabd
-0.06347754 -0.004735276 0.078596115 -0.101134345 0.09417826 0.113549426 -0.037910707 -0.056474913
-0.03997138 0.073780924 -0.06584169 -0.10359901 -0.056311052 -0.010044947 -0.064689964 -0.06903562
0.025633365 -0.08939213 -0.0079447925 -0.051296495 0.019744128 -0.061339706 0.086462885 -0.070229635
0.045455456 0.012416914 0.012251452 0.08728272 0.06769194 -0.086662635 0.035370365 0.014323071
0.06940879 -0.0063786656 -0.03350777 0.0577579 0.097225234 0.015097737 -0.10721902 0.11011015
-0.037142225 0.10189153 -0.04764413 0.08252545 0.03552535 0.108213484 0.019606069 -0.018658996
0.109056115 -0.0015155673 0.03834395 -0.05042489 0.013447836 -0.080692284 -0.11182388 -0.058743622
-0.04322186 -0.017326258 0.107659906 0.03439139 -0.111422725 -0.09633966 0.10267787 0.07604329
0.0032013655 -0.11485324 -0.0794729 -0.083400324 0.022530794 -0.048386887 0.08557658 -0.1088886
-0.022257619 -0.015421942 -0.07846691 0.03610997 -0.07178556 -0.10480065 0.07358654 0.09923802
-0.032547504 -0.003159739 0.07005638 0.026135743 -0.108159155 -0.084160015 -0.049013577 0.027549893
0.063879624 -0.025308602 0.051799193 -0.013753884 -0.066385925 0.07429065 0.06139919 0.014328793
-0.05785683 0.08901806 -2.7120113e-06 0.026054919 -0.040993385 -0.09072893 -0.0056795105 -0.05734564
0.011283964 0.04886283 0.10347597 0.060173303 0.00069919974 -0.10199742 0.06958234 -0.08663892
0.012731984 -0.02415225 -0.04052888 -0.06889579 0.10873008 0.059678778 0.03956829 0.010732025
0.035674483 0.09940608 -0.11274255 0.052155256 0.05034156 0.022423849 -0.082061216 0.09327935
0.082671374 0.04617171 -0.056323826 -0.1114817 -0.046748728 -0.009257957 -0.025962263 0.0586603
0.074053526 -0.062879786 0.060284168 -0.11204809 0.03452769 0.11024718 -0.0023040324 0.012745246
-0.00019045174 -0.015969202 0.002415359 0.023725882 -0.10788454 0.076483786 -0.016021341 0.092801005
-0.027467988 -0.096112534 0.050706208 -0.09274322 0.03467074 0.062829375 0.08876598 -0.10099826
-0.050736226 -0.01057779 0.02793163 0.00742393 -0.099378236 0.10717793 0.09110077 0.024528831
0.0009506196 0.09972869 0.059858486 -0.045475245 -0.05863836 0.08498207 0.072500944 0.05801998
-0.10836084 -0.054332938 0.017168924 0.009907886 0.07679175 0.06694737 -0.06147671 0.10724372
-0.069767006 0.03996007 0.0006794706 0.050767124 -0.049292408 0.10099973 0.040166765 0.0003586635
0.10531193 -0.011266157 -0.11513427 -0.028145626 -0.019731753 0.04402694 0.09319474 0.035820246
-0.0016955286 0.06835431 0.076165766 -0.0041544065 0.008796379 -0.0886277 0.083414495 -0.02299247
-0.04054848 -0.015318699 -0.009446919 -0.075851426 0.075789765 -0.095751226 0.08917685 0.11445105
0.048637703 0.04361649 0.049374104 -0.045534573 0.025552645 -0.026615724 -0.05966393 0.03756164
0.08330335 0.095880166 -0.03035044 0.056817338 -0.067902535 -0.011100769 -0.054167677 -0.103180595
0.054879487 0.047955096 0.10050985 -0.09491423 0.077170715 -0.08267121 -0.03552766 0.029914036
-0.052513316 0.024108946 -0.11471205 -0.06290871 -0.05783566 0.012217358 0.053908274 -0.11435172
-0.011724755 0.053704724 0.10370095 -0.048927963 -0.07308835 -0.00908608 -0.014843971 -0.09898657

conv1.bias f4 [16]
00000000: 3a7f 96bd e803 b6bd 24fe 6b3d 6208 17bd
00000010: e861 0bbe d862 963d f7be b1bd ecbd a8bc
00000020: 3461 e3bf 816f 9abd 40bd 8bbc df2d 18bd
00000030: cadf e33d 707c b6bc 334c c6bd b6e7 dd3d
-0.07348485 -0.08887464 0.057615414 -0.03687323 -0.13611567 0.07343072 -0.08679002 -0.020598374
-1.7764039 -0.07540799 -0.017058015 -0.03715312 0.11126669 -0.022276133 -0.096825026 0.10835211

bn1.weight f4 [16]
00000000: 0000 803f 0000 803f 0000 803f 0000 803f
00000010: d8e3 8e3f 96fb 7f3f abfa 7f3f 0000 803f
00000020: 5903 1a40 0000 803f 0000 803f 567e 883f
00000030: 0000 803f 0000 803f 0000 803f 0000 803f
1.0 1.0 1.0 1.0 1.1163282 0.99993265 0.99991864 1.0
2.4064543 1.0 1.0 1.0663555 1.0 1.0 1.0 1.0

bn1.bias f4 [16]
00000000: 0000 0000 0000 0000 0000 0000 0000 0000
00000010: ba8f 68bc 079f ccbd d9b9 ccbd 0000 0000
00000020: c42a 29bc 0000 0000 0000 0000 435e 8ebb
00000030: 0000 0000 0000 0000 0000 0000 0000 0000
0.0 0.0 0.0 0.0 -0.014194423 -0.099912696 -0.09996385 0.0
-0.0103251375 0.0 0.0 -0.004344733 0.0 0.0 0.0 0.0

bn1.running_mean f4 [16]
00000000: 337f 96bd e103 b6bd 1dfe 6b3d 5b08 17bd
00000010: ea61 0bbe d262 963d f1be b1bd e6bd a8bc
00000020: 3461 e3bf 7a6f 9abd 39bd 8bbc d82d 18bd
00000030: c4df e33d 687c b6bc 2b4c c6bd aee7 dd3d
-0.0734848 -0.088874586 0.05761539 -0.036873203 -0.1361157 0.07343067 -0.08678997 -0.020598363
-1.7764039 -0.07540794 -0.017058002 -0.037153095 0.11126664 -0.022276118 -0.09682497 0.10835205

bn1.running_var f4 [16]
00000000: 0400 0000 0400 0000 dcea 0623 0400 0000
00000010: 0400 0000 dcea 0624 3914 8024 0400 0000
00000020: 3914 8028 0400 0000 0400 0000 0400 0000
00000030: 3914 8024 3914 8022 0400 0000 0400 0000
6e-45 6e-45 7.313888e-18 6e-45 6e-45 2.9255552e-17 5.554541e-17 6e-45
1.4219625e-14 6e-45 6e-45 6e-45 5.554541e-17 3.471588e-18 6e-45 6e-45

conv2.weight f4 [32, 16, 5, 5]
00000000: c0d3 d0bb c7a2 f2bc fb4c 0f3d 2b2e 4a3d
00000010: 141b 69bc af4f 093d e0da 023b 1b66 153d
00000020: d7ea a4bc b055 babb c629 91bc 0639 f03c
00000030: d893 103c c814 353c d28b e13c 4445 623c
00000040: b08f 39bb 10f0 14bd 0217 19bd d011 b2bc
00000050: c6c5 a03c 3340 bebc 21d8 383d 90c5 e4bb
00000060: 462f 87bc d4e1 793c 7622 fb3c 64f0 6e3c
00000070: b7d9 fdbc da1f 1cbd 40f3 e63b 25b4 403d
00000080: b28c 903c 00ea adbc afd3 34bd 207f 70bb
00000090: d107 1d3d 30c7 613b 1a80 cebc 61a4 323d
000000a0: e353 303d 5729 c9bc ed1e ccbc 933a f0bc
000000b0: 0d06 15bd 6ddb 3ebd 3a92 933c a0f2 6ebb
000000c0: 30fe 553b 19a5 2a3d 7d39 47bd cf5e 3abd
000000d0: 68db 23bd cc50 223c e7c6 a5bc 6550 2c3d
000000e0: 64e8 8ebc b567 06bd 0a53 f8bc 50a6 df3b
000000f0: 0072 ff3a fd76 d3bc 0c94 153c 0139 073d
00000100: 125f e83c 0a6f 34bd 6067 3abd 9640 dc3c
00000110: 37f7 30bd 7dbd 24bd f240 ee3c 7a3b 85bc
00000120: 83cb b2bc 6b9c 093d 18fe 433c f7f5 dfbc
00000130: e790 473d 6b17 193d 960a d63c dcbf 83bc
00000140: 966f c43c a517 2b3d a800 b83b a0bc 41bc
00000150: 90f4 3bbd 00c0 0738 bdec cabc 209d 49bd
00000160: 3ddf ccbc f448 253c d025 013b d2da 22bd
00000170: b980 473d 9e0f d83c b188 2e3d 6037 77bc
00000180: d097 e53b 9aac babc 33ea 053d 302f 863b
00000190: 16a1 42be a641 f4bd 4a9c 2dbe 2311 23be
000001a0: 07a8 30be 446c 31be f12f 22be c286 40be
000001b0: fa54 3fbe e9de 02be a290 efbd e647 52be
000001c0: 222b dfbd e1e9 3dbe 8740 21be 07f3 06be
000001d0: ca75 46be edbf 38be 0e16 4abe cd11 0dbe
000001e0: 6040 4cbe f00b 2ebe ee70 3dbe f773 3abe
000001f0: c6ec eabd 5192 22bd dd5b 0f3c 7fc2 9abc
00000200: b545 00bd 9574 1e3c 10be 443d b7d9 0cbc
00000210: 3e93 113d 56c5 1f3d 4b58 35bd 3dc1 89bb
00000220: f4a4 c7ba 693a 243c 6913 683c d91a 903c
00000230: 845b 193d 1d0f a23c a9ca fd3c d9a6 b83c
00000240: 945f a9ba 5160 ca3c 836c d83b cd7f 973c
00000250: f934 6b3c dd28 35bd 63cd 2dbd 8a27 433b
00000260: 4f8c f33c 9714 cf3c 7387 cabb 9f20 d13c
00000270: bd6a b0bc 4d0f a2bc 6b5f f63c 4a7d 543b
00000280: 1daf d43b fd45 18bc 4f9c de3c 66ab 25bd
00000290: 23a5 f1bc fe78 2fbd 7b55 dbbb 6552 57bc
000002a0: deff 253d c6c6 26bd c35d f4bc 5b63 00bd
000002b0: 1614 b9bc 140b 183d 7bbd 253c 227c 9e3c
000002c0: f0b0 81bb cd95 353d 0815 3cbd f914 193d
000002d0: 00c0 a639 5150 163d 6042 84ba 582a a1bb
000002e0: f003 e1bb a048 c23a b97a 073d ccf2 80bc
000002f0: b7c3 033d 50c2 8bbc d9d7 313d 4bae 3e3d
00000300: 8030 4a3a c266 ef3c d447 5bbc 1bfe 333d
00000310: 8d5d f6bc 1302 ecbc 5a22 9c3c acec 59bc
00000320: c687 5f3b 704e 60bd 715e afbd 8624 3fbd
00000330: 60bf 43bd 7c98 1dba 4d94 9bbd a752 81bc
00000340: 6c95 1abd fcf3 72bb 4a50 5a3b cfd5 35bd
00000350: a764 09bd 1e16 3dbc 9af4 84bd 3f06 58bd
00000360: 3cf9 89bd 2fb6 58bd 18fc f63b a8e3 40bc
00000370: eed2 38bd eba3 2bbb cf00 abbc 42a4 e83b
00000380: 7d3e a8bd e0c4 023d a882 3d3d 615e 473c
00000390: 0227 053d 57b5 2bbc fd15 fb3c e6b8 1a3d
000003a0: 7b0b d73b fdbe 1c3c 06f2 233d 03f8 30bc
000003b0: a937 153c ed52 ccbb 434e 07bd 3528 dbbc
000003c0: 3619 303b 786b 2dbd 448f 1f3d de49 463d
000003d0: f9fd 5a3c 9584 f3bc 1fc4 62bc fd6d fa3c
000003e0: 6daa 0dbd ad98 9b3c 0974 483d fdec d3bc
000003f0: 7765 183d aa26 bfbc 0b3e 38bd 7d9e 1b3d
-0.006372899 -0.029618634 0.034985524 0.049360435 -0.014227647 0.033523258 0.0019966885 0.03647433
-0.020131512 -0.0056864843 -0.017720114 0.029324066 0.008824311 0.011052318 0.027532492 0.0138104595
-0.0028314404 -0.036361754 -0.037375458 -0.02173701 0.019625556 -0.023223972 0.04512799 -0.006981559
-0.016502034 0.0152515955 0.03065608 0.014583681 -0.030987604 -0.038116314 0.0070480406 0.0470468
0.017645214 -0.021229744 -0.04414719 -0.0036696866 0.038337532 0.0034451 -0.025207568 0.043613795
0.04304875 -0.024555845 -0.02491709 -0.029324805 -0.036382724 -0.04659598 0.018014062 -0.0036460534
0.0032652728 0.041661356 -0.04863881 -0.045500573 -0.040004164 0.009906959 -0.020236446 0.042068858
-0.017444797 -0.032813746 -0.030313034 0.006825246 0.0019488931 -0.025813574 0.009129535 0.033013348
0.028365646 -0.044051208 -0.045508742 0.026886266 -0.043204512 -0.040219773 0.029083703 -0.016263712
-0.021825558 0.033596437 0.011962436 -0.027338965 0.048722174 0.03737585 0.026128095 -0.016082697
0.02397899 0.041770596 0.0056153126 -0.011824757 -0.04588753 3.2365322e-05 -0.024771089 -0.04922211
-0.025008792 0.010088194 0.0019706376 -0.039759465 0.048706744 0.026374634 0.042610828 -0.015088886
0.007006623 -0.022787381 0.032694053 0.0040949807 -0.19006762 -0.11926584 -0.16954151 -0.15924506
-0.17251597 -0.17326456 -0.158386 -0.18801406 -0.1868476 -0.12780346 -0.116975084 -0.2053524
-0.10896899 -0.18546249 -0.15747271 -0.13178645 -0.1938087 -0.18041964 -0.19734976 -0.13776322
-0.19946432 -0.16996741 -0.1850011 -0.182083 -0.11470942 -0.03969032 0.008749929 -0.018891571
-0.031316478 0.00967135 0.04803282 -0.008596829 0.03554081 0.039006554 -0.044273656 -0.004203944
-0.0015231655 0.010023692 0.014164784 0.017590927 0.03744079 0.019782597 0.030980425 0.022540497
-0.0012922161 0.02470413 0.0066047325 0.018493557 0.014355891 -0.044228423 -0.0424322 0.0029778206
0.02972999 0.025278373 -0.0061806976 0.02552825 -0.021535272 -0.019782687 0.030074796 0.003242331
0.0064906017 -0.00929403 0.027174143 -0.04044666 -0.029497689 -0.042839997 -0.0066935397 -0.013142203
0.040527217 -0.04071691 -0.029829865 -0.031344753 -0.022592586 0.03711994 0.010115976 0.0193463
-0.00395786 0.044332314 -0.045918494 0.037373517 0.00031805038 0.03669769 -0.0010090582 -0.004918378
-0.0068669245 0.0014822669 0.03307602 -0.015740775 0.03216907 -0.017060429 0.04341874 0.046552937
0.00077129155 0.029223803 -0.013383824 0.043943506 -0.030073905 -0.028809583 0.019059349 -0.013301056
0.0034108027 -0.054762304 -0.08562935 -0.04666569 -0.04778993 -0.00060117966 -0.075966455 -0.015786482
-0.037740156 -0.0037071696 0.0033312016 -0.044393357 -0.033543255 -0.011540918 -0.064919665 -0.05274033
-0.06736991 -0.05290812 0.007537376 -0.0117730275 -0.045123033 -0.0026190232 -0.020874409 0.007099659
-0.08215044 0.031926036 0.04626718 0.012168498 0.032507904 -0.0104802465 0.030650133 0.03777399
0.006562648 0.0095670195 0.040025733 -0.010801318 0.009107509 -0.0062354715 -0.03303362 -0.02675257
0.0026870496 -0.04233882 0.038954988 0.04841029 0.013366216 -0.029726306 -0.013840704 0.030570025
-0.03458636 0.0189937 0.048938785 -0.02586984 0.03720614 -0.023333866 -0.044981044 0.037992943

conv2.bias f4 [32]
00000000: dacb 99c0 1ef3 5b3e 96e0 18be 20c6 2fbd
00000010: f5dd bcbd ddbb 03be 76d2 e6bd cde1 6e3e
00000020: 67d2 c53c a154 b5bd a70b d03d 0721 18be
00000030: d7cc ecbd dd90 ff3c 444d 8cbd 47bd 093e
00000040: 379d aebc 3445 0d3e 92c2 993d fc3f 973e
00000050: 32ff 0ec1 9512 6e3d 41a0 c43d 77ed 0cbe
00000060: c3cc 0cbe b708 e8bd dc5e 52bd 18a3 25be
00000070: 63f9 553e bc59 e83d 5f64 683f 300e 76bd
-4.806134 0.2147946 -0.14929423 -0.042913556 -0.092220224 -0.12864633 -0.11270611 0.23328324
0.02414818 -0.08854032 0.101584725 -0.14856349 -0.115625076 0.031197006 -0.06850675 0.1345111
-0.0213152 0.1379593 0.075078145 0.29541004 -8.937304 0.05812319 0.096008785 -0.1376246
-0.13749985 -0.11329787 -0.051359996 -0.16175497 0.20895915 0.113452405 0.90778154 -0.060072124

bn2.weight f4 [32]
00000000: f536 7140 2d7a 833f b7ff 7f3f 5401 803f
00000010: edff 7f3f cfff 7f3f f0ff 7f3f 7d2a 7d3f
00000020: f7d2 7f3f ffff 7f3f ffff 7f3f 0000 803f
00000030: f3ff 7f3f d14f 813f 76ff 7f3f acff 7f3f
00000040: befa 7f3f ebff 7f3f 0100 803f ff89 803f
00000050: 25a1 8740 148c 6b3f feff 7f3f 0000 803f
00000060: 8e5c 843f eafe 7f3f fbff 7f3f a520 673f
00000070: a70e 803f 0a00 803f f5e2 9bbf d8ff 7f3f
3.7689793 1.027166 0.99999565 1.0000405 0.99999887 0.9999971 0.99999905 0.98892957
0.9993128 0.99999994 0.99999994 1.0 0.9999992 1.0102483 0.9999918 0.999995
0.9999198 0.99999875 1.0000001 1.0042113 4.238421 0.9201062 0.9999999 1.0
1.0340745 0.99998343 0.9999997 0.90284187 1.0004472 1.0000012 -1.2178637 0.9999976

bn2.bias f4 [32]
00000000: 2bfe 2244 f49f 04bd 595a c9bd 9be2 aebc
00000010: 46e4 c2bd 5593 bcbd 3be2 b6bd 63a4 a1bc
00000020: fdc7 b6bc 21bf 5ebd 642e 95bd 6f60 afbd
00000030: e779 b2bd 4fe8 5dbd 2659 cbbd 9768 cabd
00000040: df38 32bc b956 bbbd 9858 41bd c373 29bd
00000050: 0ee4 2244 9f3f cdbd 8248 90bd 6434 a5bd
00000060: 0ff3 9abc 55d2 cabd 9458 83bd f72c cebd
00000070: 421c 61bd 9858 41bd 53ee 2244 6567 babd
651.9714 -0.032379106 -0.098316856 -0.021348288 -0.09516196 -0.09207789 -0.08929869 -0.019731706
-0.022312159 -0.054381493 -0.07284239 -0.08563315 -0.08714657 -0.054176625 -0.09929113 -0.0988323
-0.010877817 -0.091474004 -0.04720363 -0.041370165 651.56335 -0.100219004 -0.0704508 -0.08066633
-0.018914727 -0.09903399 -0.06413379 -0.1006717 -0.05495859 -0.04720363 651.7238 -0.09101752

bn2.running_mean f4 [32]
00000000: 82a9 99c0 17f3 5b3e 90e0 18be 13c6 2fbd
00000010: fadd bcbd d0bb 03be 6ed2 e6bd c1e1 6e3e
00000020: b4d2 c53c ad54 b5bd 9a0b d03d fc20 18be
00000030: cbcc ecbd f090 ff3c 3a4d 8cbd 47bd 093e
00000040: 1f9d aebc 2d45 0d3e 94c2 993d fd3f 973e
00000050: 1b76 0fc1 9a12 6e3d 43a0 c43d 79ed 0cbe
00000060: bdcc 0cbe a908 e8bd d25e 52bd 0ea3 25be
00000070: 58f9 553e ba59 e83d 6e77 693f 590e 76bd
-4.801942 0.2147945 -0.14929414 -0.042913508 -0.09222026 -0.12864614 -0.11270605 0.23328306
0.024148323 -0.08854041 0.10158463 -0.14856333 -0.11562499 0.031197041 -0.06850667 0.1345111
-0.021315156 0.1379592 0.07507816 0.29541007 -8.966334 0.05812321 0.0960088 -0.13762464
-0.13749976 -0.11329777 -0.05135996 -0.16175482 0.20895898 0.11345239 0.9119786 -0.060072277

bn2.running_var f4 [32]
00000000: ecb6 2f2b 6fec 0625 6fec 0625 0400 0000
00000010: 8d08 a725 8f69 2526 6fec 0626 fec9 9727
00000020: 6fec 0624 0400 0000 6dd1 5226 6fec 0627
00000030: fec9 9725 0400 0000 fec9 9725 fec9 9726
00000040: 7670 8022 0400 0000 8f69 2525 fec9 9727
00000050: 8ded 612c b570 5a25 0400 0000 6fec 0625
00000060: 8f69 2526 fec9 9725 8d08 a724 b570 5a27
00000070: 6fec 0626 8d08 a725 e940 3f29 3ec3 2a26
6.2426344e-13 1.1702754e-16 1.1702754e-16 6e-45 2.8975676e-16 5.7388933e-16 4.6811016e-16 4.212992e-15
2.9256885e-17 6e-45 7.314221e-16 1.8724407e-15 2.63312e-16 6e-45 2.63312e-16 1.053248e-15
3.4813542e-18 6e-45 1.4347233e-16 4.212992e-15 3.210629e-12 1.8946673e-16 6e-45 1.1702754e-16
5.7388933e-16 2.63312e-16 7.243919e-17 3.0314676e-15 4.6811016e-16 2.8975676e-16 4.246682e-14 5.92452e-16

conv3.weight f4 [32, 32, 5, 5]
00000000: 811d f0bc 6378 d9bb ec09 6c3a 9989 6cbc
00000010: a156 dd3c 4a33 a8ba 4a14 06bd 6b0f 403c
00000020: 574e f039 ef99 2f3c 0949 033d 43f4 82bc
00000030: 1355 aa3c 01ca 0a3d ef1a d43c d95b 103d
00000040: 88b1 06bd e6ce 00bd 238c b23c c33a 073d
00000050: 0a99 d4ba 6b32 8a3c 96fa 86bc ef69 83bc
00000060: 9b17 0a3d d19b 013c c07c c1bc 1291 aa3c
00000070: 1a41 8a3c da72 c9bc e083 89bc 0ffb f2bc
00000080: b8c2 0abd 3aad a13b a52e 0f3c 492e 303c
00000090: f1c1 36bc fe89 f63c 6c09 b13c acbc 07bb
000000a0: f9e1 453c 97c0 3cbc 316a 073d eeb3 e33c
000000b0: c466 1e3b eb9a d4bc 6e0a edbb 0ed3 243a
000000c0: 94bb 02bd d7d9 b6bc f013 de3c f1ea ffbc
000000d0: 508c a03c 908c 573c f456 6f3c 3e69 d3bc
000000e0: 9014 db3c 482a 2a3c f2c7 e3bc dc1a a2bc
000000f0: 8610 2bbc 0d04 92bc 7e42 24bc 3e0c b63c
00000100: c1ec 093d 10da 7cbc c0d2 053a 546c 163c
00000110: 766a ec3c 6858 edbc dcb3 febc 486c b33b
00000120: 6597 88bc 80de d1b9 90c0 c43c 6017 91ba
00000130: 2000 8e3b 4c50 503c 28b5 533c b1a8 93bc
00000140: 0e0d fb3c 4c34 2fbc 2c3a 5c3c c09d df3a
00000150: c464 28bc 3758 ffbc d4ce 893c e821 b4bc
00000160: 402f 7f3c 1ca4 a7bc 00b1 ba39 a4bd 53bc
00000170: c234 4cbc e8e2 a7bb 5c98 c63c d036 193c
00000180: d0c7 a9bb 9707 0e3d e034 febb 3cb5 2ebc
00000190: 6508 61bc 5fec 0c3d f35d 9dbc dbf9 37bc
000001a0: d7ef bf3b 2503 efbb 5238 67bb 037f 4e3c
000001b0: d4f5 85bc 6d2f f2bb 02e4 e23c 6e54 db3c
000001c0: 5a25 d5bc b181 01bd 3114 60bc deaf 673b
000001d0: 7f16 203c 7a57 c7bc 15d9 00bd dbd9 05bd
000001e0: 3bb0 1a3c 77a3 713c 72fe dabc 7e13 703b
000001f0: 6b99 5ebc b557 0e3d 266b 843c a9c5 0ebd
00000200: 4caa 803c 17e5 d8bc 8ab0 8d3c 6878 27bc
00000210: 50b9 07bd d4b1 16bc c29f 23bc 4a74 f03c
00000220: f072 0c3c b90a 9abc 1ca4 1d3c fae4 a43c
00000230: 9ef9 9f3c 85b5 50ba f8ba da3c bf0d c43b
00000240: 6981 a1bb d037 b83c edd4 f6bc 627c dbba
00000250: 398b c3bb fe39 febc e616 333c 2c72 fc3b
00000260: 57a5 a43c a17e 0dbd 67b5 993c 979d fd3c
00000270: 70d4 97bc 8e5b 203c d940 d53c 3c90 053d
00000280: b394 dabc 6bca eebc c182 843c 7cb6 2abc
00000290: c761 b43c 62fd 413c f729 ff3c da84 87bc
000002a0: afd6 ed3c 4448 80bc 83d0 aa3c 2444 e837
000002b0: 68bf 2b3b 1bd7 90bc 468c 5fbc ee7e f6b9
000002c0: 3261 9b3c fa7a 0cbd 7413 cf3c a9bf c93b
000002d0: ae75 d53c 9964 0abd 866b b1bc 3344 39bc
000002e0: bec6 ca3c 9c38 b7bc 5ba3 e1bb f73f 5dbc
000002f0: 8242 783b d1f3 093d 9e2a 0abb 01cc 583c
00000300: e0a6 be3c 0dee d7bc 8124 0ebd b423 cebc
00000310: 5823 aabc f6dc ee3c 3e31 e63c 9112 f8bc
00000320: a353 e2b9 26ce cbbc 65d3 20bc 81c2 f9bc
00000330: 9682 07bd 7954 bc3c 67a2 043d 6faa 063a
00000340: c2d8 8abb ddac 8d3c 4769 2d3c 56f6 88bb
00000350: 77ca 2bbc 9e5e d8bc 5e6d cfbb a901 04bd
00000360: 632c 0a3c c941 34bc 157e c6bc 913b 0cbd
00000370: fc7e f1bc ae75 0cbd 9217 8ebc 6caf d9bc
00000380: 3bb3 afbc f07c fa3b 10c5 44bb a02f acbc
00000390: b497 0a3c 316c 103d 3192 e7bc fb63 0fbd
000003a0: 7c8d 233c eaab dabc 8e88 c53c 8af6 fa3c
000003b0: 60aa 2dbb 53c0 003d 906f fdbc 4ee7 eabc
000003c0: 98a7 a53c 3a53 14bc 79d8 82bc 7628 e33c
000003d0: 9c10 3b3c 0347 06bd d44d e1bc 3f26 80bc
000003e0: 8619 df3c 2ca7 033c 12c0 b63c 1052 b8bc
000003f0: d784 8cbc 55bb 9fbc f46c 0cbd b092 3e3b
-0.029310944 -0.0066366657 0.0009004164 -0.014437103 0.027018847 -0.0012832668 -0.032734193 0.011722426
0.00045834735 0.010717853 0.032052074 -0.015985614 0.02079252 0.033884052 0.02589175 0.035243843
-0.03288415 -0.031447314 0.021795338 0.033015024 -0.0016219926 0.016869744 -0.01647691 -0.016041724
0.03371392 0.007910685 -0.023619056 0.020821128 0.016876746 -0.024590898 -0.016786516 -0.02966073
-0.033877105 0.0049339803 0.008739148 0.010753223 -0.011154638 0.030095097 0.021610938 -0.0020711822
0.012077802 -0.011520526 0.033060256 0.027795758 0.002417014 -0.025952777 -0.0072339093 0.0006287553
-0.03191717 -0.022320671 0.027109116 -0.031239958 0.019598156 0.013156071 0.014608134 -0.02580702
0.026743203 0.010386057 -0.027805302 -0.019788198 -0.010440951 -0.017824197 -0.010025619 0.022222634
0.03367305 -0.0154328495 0.00051049516 0.009181101 0.028859358 -0.02897282 -0.031091623 0.0054755546
-0.016673753 -0.00040029362 0.024017602 -0.0011069588 0.004333511 0.012714457 0.012921609 -0.018024774
0.030645873 -0.010693621 0.013441604 0.0017060563 -0.010277931 -0.031169994 0.016822256 -0.021988824
0.01557523 -0.020463996 0.0003560856 -0.012923632 -0.01246375 -0.005123485 0.024242572 0.009351447
-0.00518129 0.034675207 -0.007757768 -0.010663327 -0.013734912 0.03440511 -0.019209838 -0.011229004
0.0058574486 -0.007294076 -0.0035281372 0.012603524 -0.016352572 -0.0073909075 0.027696613 0.026773658
-0.026018787 -0.031617824 -0.013676689 0.0035352628 0.0097709885 -0.024333704 -0.031457026 -0.032678466
0.009441431 0.014748446 -0.026732657 0.0036632712 -0.013586382 0.034751613 0.016164374 -0.034856472
0.015706204 -0.026476426 0.017296094 -0.010221578 -0.033135712 -0.009197671 -0.00998682 0.029352326
0.008572325 -0.018803941 0.009621646 0.020128716 0.019528206 -0.0007961619 0.026700482 0.005983084
-0.004928757 0.022487551 -0.030130828 -0.0016745443 -0.0059675244 -0.031033512 0.010930752 0.00770404
0.020098371 -0.03454459 0.018763257 0.030958934 -0.018533915 0.009787453 0.026031898 0.032608256
-0.026682233 -0.029149255 0.01617563 -0.010419484 0.02201928 0.011840196 0.03114794 -0.01654284
0.029033033 -0.015659459 0.02085138 2.7688286e-05 0.0026206616 -0.017680695 -0.013644284 -0.00047015346
0.018967245 -0.034296967 0.02527783 0.006156881 0.02605709 -0.033787344 -0.021657716 -0.011307764
0.02475297 -0.02236586 -0.0068859286 -0.01350402 0.0037881439 0.033679787 -0.002108253 0.013232232
0.023272932 -0.026358629 -0.03470278 -0.025163509 -0.020768806 0.029158097 0.028099652 -0.03028229
-0.00043168393 -0.024878573 -0.009816025 -0.030488255 -0.03308352 0.022989498 0.03238144 0.0005137091
-0.0042372653 0.017294342 0.010584182 -0.004179756 -0.010485283 -0.026412304 -0.0063301763 -0.032228146
0.008433434 -0.0110020125 -0.024230042 -0.034236494 -0.029479496 -0.034291916 -0.017345224 -0.026572905
-0.021447768 0.0076442882 -0.0030024685 -0.021018803 0.00845902 0.03525943 -0.028267952 -0.03500746
0.009982463 -0.026693303 0.024112966 0.030635137 -0.0026499256 0.031433415 -0.030936986 -0.028674748
0.020221516 -0.009053046 -0.015972363 0.027729254 0.011417534 -0.032782566 -0.027502932 -0.015643237
0.02723385 0.008035462 0.022308383 -0.022500068 -0.017153187 -0.019498507 -0.034283593 0.0029079132

conv3.bias f4 [32]
00000000: 25ad 06be 8c45 b6bd 3f92 b3bd 2c36 1f3c
00000010: 674c 09be 9df1 8f3d 2200 24bc 76ae de3d
00000020: 88d2 8d3d da99 b4bd 6ba1 8d3d f674 05be
00000030: 0fe5 d53d 0887 6dbd ae94 3c43 92d6 5bc3
00000040: 67fb ffbd b803 f23d 07c3 03be 1697 2ac2
00000050: 7695 ab3d 57c6 a93d 4603 cf3d 8452 ffc3
00000060: 69c9 9fc3 c1b0 20c3 ab5b b441 da9f 723e
00000070: 5f9e b6bd d97d e03d 042a eb43 a49c a043
-0.13151987 -0.08899984 -0.087681286 0.009717505 -0.13408051 0.07028506 -0.010009797 0.108731195
0.06924921 -0.08818407 0.06915554 -0.13032898 0.1044408 -0.057990104 188.58078 -219.83817
-0.12499123 0.118171155 -0.12867366 -42.647545 0.08378117 0.082897834 0.10108046 -510.64465
-319.57352 -160.69044 22.54476 0.23693791 -0.08916926 0.109615035 470.32825 321.22375

bn3.weight f4 [32]
00000000: 0000 803f 0000 803f 0000 803f 0000 803f
00000010: 0000 803f 0000 803f 0000 803f 0000 803f
00000020: 0000 803f 0000 803f 0000 803f 0000 803f
00000030: 0000 803f 0000 803f 0000 803f 0000 803f
00000040: 0000 803f 0000 803f 0000 803f 0000 803f
00000050: 0000 803f 0000 803f 0000 803f 0000 803f
00000060: 0000 803f 0000 803f 0000 803f 0000 803f
00000070: 0000 803f 0000 803f 0000 803f 0000 803f
1.0 1.0 1.0 1.0 1.0 1.0 1.0 1.0
1.0 1.0 1.0 1.0 1.0 1.0 1.0 1.0
1.0 1.0 1.0 1.0 1.0 1.0 1.0 1.0
1.0 1.0 1.0 1.0 1.0 1.0 1.0 1.0

bn3.bias f4 [32]
00000000: afcc ccbd 9dcc ccbd c7cc ccbd 118b 30be
00000010: 1cb5 3abe 7bcc ccbd becc ccbd 62cc ccbd
00000020: 93cc ccbd a1cc ccbd 61cc ccbd bccc ccbd
00000030: c0cc ccbd 9947 84bd ce23 7a44 5427 7a44
00000040: 6ecc ccbd 92cc ccbd b9cc ccbd 6822 7a44
00000050: 92cc ccbd b3cc ccbd e2c1 ccbd 0926 7a44
00000060: cb27 7a44 c327 7a44 1424 7a44 4480 82bd
00000070: 2189 a5bd 77cc ccbd 8a23 7a44 3e31 7a44
-0.09999978 -0.099999644 -0.09999996 -0.1724055 -0.1823315 -0.09999939 -0.09999989 -0.099999204
-0.09999957 -0.09999967 -0.0999992 -0.099999875 -0.099999905 -0.06458969 1000.55945 1000.6145
-0.09999929 -0.09999956 -0.09999985 1000.5376 -0.09999956 -0.09999981 -0.09997918 1000.5943
1000.62177 1000.6213 1000.5637 -0.06372121 -0.08082796 -0.09999936 1000.5553 1000.7694

bn3.running_mean f4 [32]
00000000: 2ca2 ac42 facf 26c3 976e e842 ee53 b445
00000010: 62cd 04c6 83cc 8643 f396 f9c1 efc5 a143
00000020: 024a 7ec4 1f04 85c4 ad3b 2643 b224 39c5
00000030: 167a 4c45 4942 75c5 89fb 094b 8f14 0bcb
00000040: df12 a2c2 3af4 2c42 a25c 4345 6c0c bcc9
00000050: 4133 9244 faca d044 f299 8b42 68b9 accb
00000060: 5626 57cb 4701 c9ca daf2 9049 f893 eac4
00000070: f125 ae44 5b31 3243 c823 ad4b 7f20 814b
86.31674 -166.81241 116.215996 5770.491 -8499.346 269.59775 -31.198706 323.54636
-1017.1564 -1064.1288 166.23311 -2962.2935 3271.6304 -3924.1428 9.042825e+06 -9.114767e+06
-81.03686 43.238503 3125.7896 -1.5404935e+06 1169.6017 1670.343 69.800674 -2.2639312e+07
-1.4100054e+07 -6.5865315e+06 1.1874192e+06 -1876.624 1393.1857 178.1928 2.2693776e+07 1.6924926e+07

bn3.running_var f4 [32]
00000000: 0400 0000 0400 0000 0400 0000 0400 0000
00000010: 0400 0000 0400 0000 0400 0000 0400 0000
00000020: 0400 0000 0400 0000 0400 0000 0400 0000
00000030: 0400 0000 0400 0000 0400 0000 0400 0000
00000040: 0400 0000 0400 0000 0400 0000 0400 0000
00000050: 0400 0000 0400 0000 0400 0000 0400 0000
00000060: 0400 0000 0400 0000 0400 0000 0400 0000
00000070: 0400 0000 0400 0000 0400 0000 0400 0000
6e-45 6e-45 6e-45 6e-45 6e-45 6e-45 6e-45 6e-45
6e-45 6e-45 6e-45 6e-45 6e-45 6e-45 6e-45 6e-45
6e-45 6e-45 6e-45 6e-45 6e-45 6e-45 6e-45 6e-45
6e-45 6e-45 6e-45 6e-45 6e-45 6e-45 6e-45 6e-45

head.weight f4 [2, 512]
00000000: 78e2 ab3d 2ba7 833d 87a2 513d 9711 893d
00000010: e52e ac3d fa64 ff3c e7d0 a13c 9dc1 8139
00000020: 698e bd3c b42b 583b fbb3 183d 36ed 403d
00000030: 9b62 9c3d 9a85 ae3b ae54 4d3d c31c 933d
00000040: 2c8d 8d3c 14f1 cd3c 9c63 4d3c d1c0 593d
00000050: 0833 2c3d 9584 693d dc27 9b3c ccfe 28bc
00000060: 2025 d0bb 38de ea3c c9cf 4c3d 0013 e7bb
00000070: cf22 053d c8f4 31bc 06fb 503c 1fd8 613d
00000080: c190 133d b611 633b bc25 3bbc efc5 e0bc
00000090: ded2 37bc 7d03 ccbb 27fd 873c 9e3c 29b9
000000a0: f5b6 bfbc c949 c93c b639 713b e510 4d3d
000000b0: 439b cbbc d8f8 02bc bc8f 3bbc 2184 a1bb
000000c0: 3d53 363d a76e e53c d4a3 a13d efa0 a23d
000000d0: 8b7c 8d3c cb75 883c fa12 983d cfdf 5b3d
000000e0: 5311 fe3c eefe 363c 4b89 1e3d 0fcb a13c
000000f0: 979c b03d 4520 053d 5648 913d fab5 3d3d
00000100: 6329 99bc 944f e13b a901 a03c d4cb 8d3b
00000110: 960b 3b3d 5eb1 0d3d 2bf7 7a3d 0c65 87bb
00000120: d4a0 643d 80f6 633d 9ce7 643a 5b2b 95bc
00000130: eb37 a7bc 2bca 743d 652b 923c 5581 a53c
00000140: ef25 893d bf39 923b 0f67 033d 54f9 bc3c
00000150: b48a 9e3d 1044 693d 0440 2c3d 9d7c 163d
00000160: 9670 453c f521 493d 12e9 a83c f682 5a3d
00000170: 1f78 c13c e7e3 873d f0ea 643d 6fa9 9b3b
00000180: 80f5 a73c aaa9 9ebc 1fb1 77bc 79f6 32bc
00000190: 66f6 b3bb 98bc b13c a0ad 193d 1e72 af3c
000001a0: 8554 203c 00d0 da3c 0455 c93c 75e1 27bb
000001b0: 7517 33bc dcc4 073d 8ec6 ec3c b192 05bc
000001c0: fc55 2b3c f85b 4d3c edfd 8d3d c868 c13c
000001d0: 5000 9c3d 7785 133d 70fe 9c3d 24b3 a83d
000001e0: f32b 973d 5631 8b3d 2b4a 9d3c 93ed 773d
000001f0: 15d8 763d ee85 af3d f5dd 883d ad8f 0e3d
00000200: 3b7e 25bc bdeb 943d 2a60 94b9 2c6d 0a3d
00000210: 482f 4c3d dd4b 3f3d dc37 9f3c 821b 3c3d
00000220: 459d 893d c6ac ae3a 86a2 d53a c8e4 f83c
00000230: 74ee 1e3d f8c5 7e3d 5fff a7bb a1dc 5e3c
00000240: 8768 3fbb 6c12 083d 6b24 b63c d43f 883b
00000250: 7649 843d 03bc 873d f077 433d deac 643d
00000260: 1f9e 2c3d a0ff 8e3d 6526 b33c a793 823d
00000270: 662b 30bc d40b 95bb 350d aa3c 6e40 5d3d
00000280: 9704 d93c cbe3 f03b f67d 793c f6d0 333d
00000290: eefe 3739 4183 cebb 0601 4f3c e39a d43c
000002a0: be91 4dbc 2b6d ee3c 8d5d ebbc 87d8 8f3c
000002b0: e906 35bb b304 a53c b444 6c3d c5df b33c
000002c0: 1952 10bd 0832 c8bc 122f dbbc 3840 ac3c
000002d0: 8f1c 1bbd 5c91 8c3c 144d a63c 3390 6fba
000002e0: c8d1 c83c 591d 423c b319 1e3b cce2 81bc
000002f0: d49e 9d3c 282a e43c a141 683c d69e 20bd
00000300: 0124 ecbc 92a8 6b3c d3e6 6abd 3f1c c739
00000310: b41a d1bb 2d8c 33bd ee5a 33bc 9479 bebb
00000320: 68a3 2a3b 86b9 81bd d5a9 a93c edb4 4bbd
00000330: a9b3 1fbd 349f 1dbd 7d85 a63c 1bb1 91bc
00000340: ba2b 81bd 76ec 61bd 8496 37bd a115 66bd
00000350: 867f fdbc 8d55 88bd dbe6 28bd a197 0abd
00000360: 5135 96bd a353 4fbc 089c b7bd 62ec f7bc
00000370: 9f6e b5bd 43ab 5fbc 0eb7 a8bc 804a bbbd
00000380: c06d 7a44 316b 7a44 c06d 7a44 596d 7a44
00000390: e26a 7a44 d76d 7a44 0c6b 7a44 066c 7a44
000003a0: f669 7a44 376c 7a44 586c 7a44 8a6e 7a44
000003b0: 3c6d 7a44 e569 7a44 d26a 7a44 d16e 7a44
000003c0: f067 7a44 c363 7a44 6e68 7a44 1366 7a44
000003d0: 1b66 7a44 7264 7a44 1d68 7a44 7668 7a44
000003e0: 2b66 7a44 5b68 7a44 6e66 7a44 b266 7a44
000003f0: ab68 7a44 9164 7a44 0565 7a44 df64 7a44
0.08392805 0.06428369 0.05118039 0.06692808 0.08407382 0.031176079 0.019752933 0.0002474905
0.023139196 0.0032985033 0.037281018 0.047101222 0.07635995 0.005325985 0.050129585 0.0718322
0.01727923 0.02513937 0.012535956 0.0531624 0.042040855 0.057011206 0.018939905 -0.010314655
-0.006352082 0.028670415 0.050002847 -0.0070518255 0.0325039 -0.010861583 0.012755161 0.05513775
0.03602672 0.0034648008 -0.011422571 -0.027438132 -0.011219708 -0.006226002 0.016600205 -0.00016139678
-0.02340267 0.024571316 0.003680808 0.05006494 -0.024854308 -0.007993899 -0.011447843 -0.004929081
0.044512976 0.028006865 0.07892576 0.07940852 0.0172713 0.01665773 0.074254945 0.053680237
0.03101412 0.011169178 0.03870515 0.019750146 0.08623617 0.032501478 0.07093875 0.046316124
-0.018696493 0.0068759415 0.019532042 0.0043272767 0.045665346 0.03459298 0.061270874 -0.004131919
0.05581744 0.055655003 0.0008732022 -0.01820915 -0.020412406 0.059763115 0.017842958 0.020203272
0.066966884 0.0044624503 0.032080706 0.023068108 0.07741299 0.056949675 0.042053238 0.036739934
0.012050768 0.04910465 0.02061895 0.05334755 0.023616849 0.06635266 0.055888116 0.0047504227
0.020502806 -0.019368012 -0.015117913 -0.0109230215 -0.0054920195 0.021696374 0.037519097 0.02141672
0.009785776 0.02671051 0.024576671 -0.002561656 -0.010930886 0.033146724 0.028903272 -0.00815265
0.010457512 0.012534134 0.06933198 0.023609534 0.07617247 0.036015954 0.076657176 0.08237293
0.073814295 0.067965195 0.019200405 0.060529303 0.060264666 0.08570467 0.0668296 0.03480499
-0.0101008965 0.07271526 -0.00028300408 0.03379552 0.04984978 0.04670321 0.019435816 0.04592467
0.0671945 0.0013326637 0.0016299046 0.030382529 0.038801625 0.062200516 -0.005126878 0.013602407
-0.002920659 0.033220693 0.022234162 0.0041579995 0.06459324 0.06627657 0.047721803 0.05582892
0.042142984 0.0698235 0.021868894 0.06375819 -0.0107525345 -0.004548529 0.02075825 0.054016523
0.026491446 0.007351374 0.015227785 0.043900453 0.00017547209 -0.006302268 0.012634521 0.025952762
-0.012546955 0.02910479 -0.028731132 0.017559303 -0.0027622527 0.020143842 0.057682708 0.021957288
-0.035234544 -0.02443792 -0.026755843 0.021026716 -0.037869032 0.017159157 0.020300426 -0.0009138614
0.024514094 0.011847817 0.0024124205 -0.015855215 0.019240774 0.027852133 0.014175803 -0.039213978
-0.028825762 0.014383452 -0.057349037 0.00037977283 -0.006381357 -0.043834854 -0.010946972 -0.005812833
0.002603734 -0.06334214 0.020710865 -0.04973309 -0.038989697 -0.038481906 0.020327324 -0.017784646
-0.06307168 -0.055157147 -0.044821277 -0.05617297 -0.030944597 -0.066569425 -0.041235786 -0.03383601
-0.07334388 -0.012654218 -0.089653075 -0.030264083 -0.0885899 -0.013651672 -0.0205951 -0.09145069
1001.71484 1001.67487 1001.71484 1001.70856 1001.67004 1001.71625 1001.6726 1001.68787
1001.65564 1001.69086 1001.6929 1001.7272 1001.7068 1001.6546 1001.66907 1001.7315
1001.624 1001.5588 1001.6317 1001.5949 1001.5954 1001.56946 1001.6268 1001.6322
1001.5964 1001.63055 1001.60046 1001.6046 1001.63544 1001.57135 1001.5784 1001.5761

head.bias f4 [2]
00000000: 791f 7a44 c232 5c44
1000.49176 880.7931
